deploy/pre_train/go2/policy_2000.pt (torch, 774536 bytes, 8 tensors)

weight f4 [512, 48]
0	0xbd38ca60	-0.045114875
1	0xbbb05e47	-0.0053823325
2	0x3d265b9e	0.040614717
3	0x3e07698c	0.13223857
4	0x3d9f12a8	0.0776723
5	0xbf055c81	-0.52094275
6	0xbeb0c996	-0.34528798
7	0x3e5469cc	0.20743483
8	0x3dc05b6b	0.093924366
9	0xbd87f9b8	-0.06639427
10	0xbd0cc804	-0.034370437
11	0x3f658896	0.8966154
12	0x3cc8a184	0.02449108
13	0x3e388297	0.18018566
14	0xbdf204bd	-0.1181731
15	0x3e836ebc	0.2567042
16	0x3e90bfc5	0.2827131
17	0xbd8a5a5f	-0.06755518
18	0xbc53d027	-0.012928045
19	0xbe09fc76	-0.13475212
20	0x3cfd5559	0.030924486
21	0xbcaf9105	-0.021431455
22	0x3e6fb3c3	0.23408417
23	0x3d985ccb	0.07439574
24	0x3d8891c5	0.06668428
25	0x3ebe634a	0.37185127
26	0xbd5e68b7	-0.054299083
27	0x3df5ee56	0.120083496
28	0xbed58b20	-0.41707706
29	0x3c711197	0.014713666
30	0x3e6a4fe2	0.22882035
31	0xbc400001	-0.011718751
32	0x3d58b848	0.05291012
33	0xbdec74ff	-0.11545753
34	0x3dac94a2	0.08426787
35	0x3e3be8b8	0.18350494
36	0xbc4f0982	-0.012636544
37	0x3cdf0b0a	0.027226944
38	0xbc466561	-0.012109132
39	0xbcd4eec5	-0.02599276
40	0x3d88d508	0.066812575
41	0x3cff4627	0.031161381
42	0xbdb2b207	-0.08725362
43	0x3c98e305	0.018662939
44	0xbc2ea700	-0.010659933
45	0xbb7bbe4e	-0.003841299
46	0xbc88b1eb	-0.0166864
47	0x3c50b6cc	0.012738895
48	0x3ce837d2	0.02834693
49	0x3d09e273	0.033663224
50	0xbd780549	-0.060551915
51	0xbe0117c6	-0.12606725
52	0x3dc55016	0.09634416
53	0xbed8002f	-0.4218764
54	0x3e22caf0	0.15897727
55	0xbdce95ad	-0.10087142
56	0x3e19f663	0.15035395
57	0x3d1acbf2	0.037792154
58	0xbdc09276	-0.09402935
59	0xbe5104ea	-0.20412031
60	0xbe091fe0	-0.13391066
61	0x3dfea75f	0.12434267
62	0x3ba37795	0.0049886205
63	0xbe8fa8d0	-0.2805848
64	0x3e045129	0.12921585
65	0x3e56203b	0.20910732
66	0xbeb7aefb	-0.35875687
67	0xbdcfd7b0	-0.10148561
68	0x3e2e3e4c	0.17015952
69	0xbdacb19b	-0.08432313
70	0xbe05dbd1	-0.13072135
71	0xbe34c21f	-0.17652176
72	0x3d4bcafe	0.049754135
73	0x3e40992e	0.18808433
74	0xbd631334	-0.055438235
75	0x3e0c690b	0.13711946
76	0xbe7192b2	-0.23591116
77	0x3da07100	0.07834053
78	0x3cd1fbe7	0.025632812
79	0xbd4659d3	-0.048425507
80	0xbdde93d8	-0.10868043
81	0xbe537a59	-0.2065214
82	0x3c5fc7bc	0.01365846
83	0x3ea93d9f	0.33054826
84	0xbd50ce4a	-0.050977983
85	0x3d2ff36d	0.04295676
86	0x3d24b120	0.040207982
87	0x3ca111da	0.019661833
88	0x3d6d678b	0.057960074
89	0xbda9d636	-0.082928106
90	0x3cf00f4a	0.029304165
91	0xbb20171d	-0.002442784
92	0xbda25a1a	-0.07927342
93	0x3c17c733	0.009263801
94	0xbb4bc690	-0.0031093694
95	0xbd0e6b63	-0.03477038
96	0xbe354669	-0.1770264
97	0xbe170620	-0.1474843
98	0xbdf20a4d	-0.11818371
99	0x3dc46e22	0.09591319
100	0xbe88a0c3	-0.2668515
101	0x3f20e37a	0.628471
102	0xbc27fbba	-0.010252887
103	0xbe2b7764	-0.16744763
104	0x3cdf2f7e	0.027244326
105	0x3da6a54b	0.08136996
106	0x3db24193	0.087039135
107	0xbea7ae74	-0.32750285
108	0x3eb34d08	0.35019708
109	0x3df66cd3	0.12032475
110	0x3e5dce46	0.21660718
111	0x3ef4901c	0.47766197
112	0xbe043616	-0.12911257
113	0xbe938e80	-0.28819656
114	0x3b85ac02	0.004079343
115	0xbe318d8a	-0.17339149
116	0x3c7df4a3	0.0155002205
117	0xbe2f148a	-0.17097679
118	0xbe9461d7	-0.28980896
119	0x3ea3b912	0.31977135
120	0x3c91025f	0.017701326
121	0x3dbd098f	0.09230339
122	0x3ca99c3a	0.020704377
123	0x3dc950bb	0.09829851
124	0xbe87ccd8	-0.2652347
125	0xbde3486b	-0.11097797
126	0x3e9a491e	0.3013391
127	0xbca9502f	-0.020668117
128	0xbda714e6	-0.08158283
129	0xbd72bf92	-0.059264727
130	0xbdb2398e	-0.08702384
131	0x3e364d3a	0.17802897
132	0xbd576d32	-0.05259437
133	0xbdaa49c7	-0.08314853
134	0xbcdc607a	-0.026901472
135	0x3d0146cc	0.031561658
136	0x3cf6f029	0.030143814
137	0x3d293078	0.04130599
138	0x3d0b7804	0.034050003
139	0xbc5946f4	-0.013261545
140	0xbd519a58	-0.051172584
141	0xbd386897	-0.04502162
142	0x3d722142	0.05911375
143	0xbd0643e3	-0.032779586
144	0xbe066b8a	-0.1312696
145	0x3d8446ce	0.064588174
146	0xbe0f8e34	-0.1401909
147	0x3c83e2a3	0.01609928
148	0xbd377465	-0.044788737
149	0xbc141908	-0.009039171
150	0xbc8bc9c7	-0.017063988
151	0x3e87ad21	0.26499274
152	0x3d2a60e2	0.0415963
153	0x3df653e9	0.12027723
154	0xbe01f0c4	-0.12689501
155	0x3ebd4aad	0.36971036
156	0x3e789d1b	0.24278681
157	0xbed353fc	-0.41275012
158	0x3e363800	0.177948
159	0xbc731726	-0.014837062
160	0xbe049303	-0.12946706
161	0x3d3c9ab8	0.04604599
162	0xbe989ad5	-0.29805627
163	0x3d07498e	0.03302913
164	0x3ea6c97a	0.3257559
165	0x3e8da620	0.27665806
166	0xbe23acce	-0.15983889
167	0x3e7ab12d	0.2448165
168	0xbeb350a9	-0.35022476
169	0xbe97e79c	-0.2966889
170	0xbe257e24	-0.161614
171	0x3e8412fa	0.25795728
172	0xbe6e7aae	-0.23288986
173	0xbd185ddf	-0.037198897
174	0x3caeae71	0.021323415
175	0x3d806ff8	0.06271356
176	0xbbfb41d0	-0.0076677576
177	0xbe2e49a3	-0.17020278
178	0xbed48d37	-0.41513988
179	0xbe04bbaa	-0.12962213
180	0xbcd37e3c	-0.02581703
181	0x3d48235f	0.048861858
182	0xbc6a506b	-0.0143014
183	0x3db03798	0.08604354
184	0x3d600278	0.054689854
185	0xbd84b8f1	-0.06480587
186	0xbd5deecc	-0.054182813
187	0x3dc2d3ed	0.09513078
188	0xbe067414	-0.13130218
189	0x3cdc4ee3	0.026893085
190	0xbd80ea48	-0.062946856
191	0xbd935bd5	-0.0719525
192	0x3d636af7	0.05552193
193	0xbc7373df	-0.014859169
194	0x3c69014e	0.0142215025
195	0x3c417d8e	0.01180972
196	0xbf31fbb8	-0.6952472
197	0xbe5859f9	-0.21128072
198	0xbe80d42d	-0.25161877
199	0xbcb0744d	-0.021539832
200	0xbcfe3db7	-0.031035287
201	0x3d0fb49e	0.03508436
202	0x3b07b242	0.0020705615
203	0xbec50e67	-0.3848755
204	0xbe25a38b	-0.16175668
205	0xbe898133	-0.26856384
206	0xbdf9cdfb	-0.12197491
207	0x3dd3a09c	0.10333368
208	0xbdbe3eb5	-0.09289304
209	0x3e0fa885	0.14029129
210	0x3d820704	0.063489944
211	0xbe94e6fc	-0.29082477
212	0x3d4f06a0	0.050543427
213	0x3cd12544	0.025530465
214	0xbea87826	-0.32904166
215	0x3ea6315e	0.3245954
216	0x3d83d03a	0.064362004
217	0xbe089867	-0.13339387
218	0xbe9a94dd	-0.301917
219	0xbda2d7d0	-0.07951319
220	0x3bf0bd2d	0.0073467703
221	0x3cf5af4e	0.029990818
222	0x3d8de419	0.06928272
223	0xbd8d87ea	-0.06910689
224	0x3e038772	0.12844637
225	0x3d1108d3	0.035408806
226	0xbe8988cc	-0.2686218
227	0x3e8277de	0.25482076
228	0xb9a4fa1f	-0.00031466872
229	0xbca6d763	-0.020366376
230	0x3d35559a	0.04427109
231	0xbc8dc9c3	-0.017308122
232	0x3c78cc73	0.015185463
233	0x3cadaf00	0.02120161
234	0x3d00730c	0.031359717
235	0x3b2181d4	0.0024644034
236	0xbcd8c24a	-0.026459832
237	0xbc9e0bfb	-0.019292822
238	0x3c847405	0.016168604
239	0xbd828dac	-0.06374678
240	0x3d124d7c	0.035718426
241	0xbdc37607	-0.09543996
242	0x3d253d66	0.040341757
243	0x3dcac418	0.09900683
244	0x3e340dbf	0.17583369
245	0xbf0512cb	-0.519818
246	0xbe48adef	-0.195976
247	0x3e7a40a6	0.24438724
248	0x3cc3c411	0.023897203
249	0xbd182ba3	-0.03715099
250	0xbd442e22	-0.04789556
251	0xbe09772f	-0.13424371
252	0x3e9d745c	0.30752838
253	0x3d11678b	0.035499137
254	0x3cb7644f	0.022386698
255	0x3e658674	0.22414571

bias f4 [512]
0	0xbdf56d1f	-0.11983704
1	0xbe891af5	-0.2677838
2	0x3e0d284e	0.13784906
3	0xbd608991	-0.054818694
4	0x3e1c1a14	0.15244323
5	0xbdfb0d6c	-0.122584194
6	0xbd0f59a0	-0.034997582
7	0xbe22a93b	-0.15884869
8	0x3d1499ae	0.036279373
9	0x3d11ea44	0.035623804
10	0xbd96abdc	-0.07356998
11	0x3df4a8cf	0.1194626
12	0x3d8fa6de	0.07014249
13	0x3d22d7c4	0.03975655
14	0x3ce6e6f3	0.028186297
15	0xbe1d2a37	-0.15348135
16	0xbdfce689	-0.123486586
17	0x3d8cf889	0.06883342
18	0xbe34900a	-0.17633072
19	0x3886b03c	6.422444e-05
20	0xbd8c89f9	-0.06862254
21	0xbdc7437c	-0.097296685
22	0xbe4adc77	-0.19810663
23	0xbe00e31e	-0.12586638
24	0xbde7ed9a	-0.11324616
25	0x3d99170a	0.074750975
26	0xbe0b5b39	-0.13609017
27	0x3c48e034	0.012260485
28	0x3dac0e39	0.0840115
29	0x3d58703b	0.052841406
30	0xbbe25edb	-0.0069082803
31	0xbe3b66b0	-0.18300891
32	0xbd8cb6b1	-0.06870783
33	0xbd84e18c	-0.06488332
34	0xbe2be639	-0.16787042
35	0x3e30a6c1	0.17251112
36	0x3d35df45	0.04440238
37	0x3dd0ef11	0.10201848
38	0x3d7aca2c	0.061227962
39	0xbc84f4e6	-0.016230058
40	0x3dbf0a78	0.09328169
41	0xbda57951	-0.0807978
42	0xbcf6213a	-0.03004514
43	0x3dedd614	0.11613098
44	0xbd159d61	-0.03652704
45	0xbd040b47	-0.032237317
46	0xbe7064db	-0.23475973
47	0xbe0d22a9	-0.13782753
48	0xbd3f4a4d	-0.046701718
49	0xbcb88fca	-0.022529501
50	0xbe22c387	-0.158949
51	0x3d990eee	0.07473551
52	0x3ddde781	0.108351715
53	0xbde36e6c	-0.11105046
54	0xbddf2f3c	-0.10897681
55	0x3d891382	0.06693174
56	0x3d41060d	0.04712491
57	0xbdd8e178	-0.1058988
58	0x3dcb899a	0.09938355
59	0xbd0831f8	-0.03325078
60	0x3d3e3da7	0.046445515
61	0xbd994449	-0.074837275
62	0x3dbd079a	0.092299655
63	0x3e06ec56	0.13176093
64	0xbd960c83	-0.07326605
65	0x3e0b8144	0.1362353
66	0xbb71ad9c	-0.003687716
67	0x3da95fff	0.08270263
68	0x3d4f6a37	0.050638404
69	0x3cdeada8	0.027182415
70	0xbdff9e90	-0.12481415
71	0xbde7c236	-0.1131634
72	0xbd8dff71	-0.06933487
73	0x3ce0fb58	0.0274636
74	0xbe3ca1aa	-0.18421045
75	0x3d906dad	0.07052169
76	0xbe17bbee	-0.14817783
77	0xbddd5ace	-0.10808335
78	0x3dad13da	0.08451052
79	0xbe30de49	-0.17272295
80	0x3d49fa04	0.0493107
81	0x3cd45449	0.025919097
82	0x3c2f7fe7	0.010711647
83	0xbdddcd0a	-0.10830124
84	0xbded9e3e	-0.11602448
85	0x3d1ff478	0.039051503
86	0xbd315e5d	-0.043302882
87	0x3d521049	0.051285062
88	0x3c9dceca	0.019263644
89	0x3d264805	0.040596027
90	0xbe18d16d	-0.1492364
91	0x3e13a7b6	0.14419445
92	0x3bc49416	0.0059990985
93	0xbdf30b74	-0.11867419
94	0x3c2543f4	0.010087002
95	0xbe0b43c3	-0.13600068
96	0x3d2bc1a2	0.04193271
97	0x3d968033	0.07348671
98	0xbd280588	-0.0410209
99	0xbe46ac17	-0.19401585
100	0xbdc49cd2	-0.096002236
101	0xbd68b257	-0.056810703
102	0x3d98e98b	0.0746642
103	0xbcdaffef	-0.026733367
104	0x3c8e45b0	0.017367214
105	0xbd1921be	-0.037385695
106	0xbe540817	-0.20706211
107	0xbdc65b5d	-0.09685395
108	0xbd6e7748	-0.058219224
109	0xbd7362ed	-0.059420515
110	0x3c5e641b	0.013573672
111	0xbe132ff7	-0.14373766
112	0x3c84c1fa	0.016205776
113	0xbda0da12	-0.078540936
114	0x3de09986	0.10966782
115	0xbd95e98b	-0.073199354
116	0x3da656ae	0.081220016
117	0x3da32351	0.079657204
118	0x3df3e09f	0.119080774
119	0xbca81bb5	-0.020521024
120	0xbe11c38d	-0.14234753
121	0xbddb98ac	-0.10722479
122	0xbd9ec77c	-0.077528924
123	0x3c9766f7	0.018481715
124	0xbd59d5ce	-0.053182416
125	0xbe51134a	-0.20417514
126	0xbc5de422	-0.013543161
127	0xbdb227fb	-0.08699032
128	0xbdf0a538	-0.11750263
129	0xbd8dcf21	-0.06924272
130	0x3bbebe6e	0.005821041
131	0x3d0833f2	0.033252664
132	0x3df3ac53	0.118981026
133	0xbdc305fd	-0.095226265
134	0x3b03546d	0.0020039335
135	0x3d45f286	0.04832699
136	0xbddc564a	-0.10758646
137	0x3c3d1bd4	0.011542279
138	0x3d7c21bf	0.06155562
139	0x3dc6b56c	0.09702572
140	0xbe6d51e8	-0.23175776
141	0x3dfe986f	0.12431418
142	0x3c50b452	0.012738304
143	0xbd002879	-0.031288598
144	0x3bf632b7	0.00751337
145	0xbd2494b5	-0.04018088
146	0x3c91668c	0.017749093
147	0x3d60e4dd	0.05490576
148	0xbd81e74f	-0.06342947
149	0x3dda8e9b	0.10671731
150	0xbdeee1b6	-0.11664145
151	0x3d171759	0.0368875
152	0xbd1d1d05	-0.038357753
153	0xbdffb712	-0.1248609
154	0xbde00d98	-0.10940093
155	0xbbac164c	-0.0052516814
156	0x3dee2cf0	0.11629665
157	0xbe183470	-0.14863753
158	0x3da53d46	0.080683276
159	0xba2c37d5	-0.0006569599
160	0xbcb87f43	-0.02252162
161	0xbd36c3fd	-0.044620503
162	0xbe127c9e	-0.1430535
163	0xbdca1ea7	-0.09869128
164	0xbe105d2f	-0.14098047
165	0xbdf7b7a0	-0.120955706
166	0xbde9a77d	-0.11408899
167	0x3d8a82c3	0.06763222
168	0xbe24aec2	-0.1608229
169	0x3bfd50bb	0.007730571
170	0xbe09c79f	-0.13455056
171	0xbdde982b	-0.108688675
172	0xbd1fd3ea	-0.039020456
173	0xb7aff13d	-2.0973961e-05
174	0xbdd48ad9	-0.103780456
175	0xbe773026	-0.24139461
176	0xbe0c98a7	-0.13730107
177	0xbe5a0f0a	-0.212948
178	0xbe0f6654	-0.14003879
179	0xbe13ebbf	-0.14445399
180	0xbe16ac7a	-0.14714232
181	0xbcc75140	-0.024330735
182	0x3d41ddd0	0.047330678
183	0xbe6bef34	-0.23040468
184	0xbc66b48d	-0.014081133
185	0x3d3871de	0.045030467
186	0xbe391ff8	-0.18078601
187	0xbd9420fd	-0.072328545
188	0x3d07f91e	0.03319656
189	0xbcc31adc	-0.023816518
190	0xbd178157	-0.036988582
191	0xbd6262c1	-0.05526996
192	0x3d99b062	0.075043455
193	0xbcfdd0be	-0.030983325
194	0xbe0b4d86	-0.13603792
195	0xbdb22163	-0.08697774
196	0xbde8d085	-0.11367897
197	0x3de6173d	0.11234901
198	0x3e257800	0.16159058
199	0xbda29cd3	-0.07940068
200	0x3d8e0d3e	0.069361195
201	0x3d90ed9c	0.070765704
202	0x3c9a2135	0.018814662
203	0xbe172ec2	-0.1476393
204	0xbe01b6fd	-0.1266746
205	0xbe806b6d	-0.2508196
206	0xbd833586	-0.06406693
207	0x3db72771	0.0894307
208	0xbdcb9d9b	-0.0994217
209	0xbde63fd2	-0.112426415
210	0x3d668f44	0.056288972
211	0xbb53863f	-0.0032276062
212	0xbd7591f2	-0.059953637
213	0xbdecb6d5	-0.1155831
214	0xbd567486	-0.05235722
215	0xbc8e7115	-0.017387906
216	0xbc5daa6e	-0.013529403
217	0xbe474fbd	-0.19464011
218	0xbda92313	-0.08258643
219	0xbcc417ed	-0.02393719
220	0x3dd2db48	0.10295731
221	0x3d6217b7	0.055198397
222	0x3d1766ab	0.036963146
223	0xbd543a63	-0.051813494
224	0x3da6e87e	0.08149813
225	0xbd23249f	-0.039829846
226	0x3d8363cc	0.06415519
227	0x3d492d40	0.04911542
228	0xbd50eaea	-0.05100528
229	0xbe2e3d99	-0.17015685
230	0x3ca7f9c2	0.020504836
231	0x39ccfe91	0.0003909958
232	0xbe0041f2	-0.12525156
233	0xbe34a579	-0.17641248
234	0xbdc776a1	-0.097394235
235	0x3d4b5dd1	0.049650017
236	0x3cf426b0	0.029803604
237	0xbe4118e9	-0.18857159
238	0xbdec7dd0	-0.11547434
239	0x3e170a97	0.14750133
240	0x3cd51e77	0.026015503
241	0xbac779fc	-0.0015218849
242	0xbe0f5182	-0.13995937
243	0xbdee7bbe	-0.11644696
244	0xbe42ab93	-0.19010763
245	0xbdb84339	-0.08997197
246	0xbe09fbfb	-0.13475029
247	0xbbb69989	-0.005572502
248	0xbe12950c	-0.1431467
249	0xbd47c39e	-0.04877054
250	0xbd900488	-0.07032114
251	0xbcf81b73	-0.030286526
252	0x3d89ca97	0.06728094
253	0x3da499a0	0.08037114
254	0x3c23075d	0.009950486
255	0x3cc2760e	0.023737933

weight f4 [256, 512]
0	0x3df86f7e	0.121306404
1	0x3d3f18f5	0.04665466
2	0x3d495434	0.049152568
3	0x3e072c1b	0.13200419
4	0x3dafd550	0.08585608
5	0x3cbce0df	0.023056446
6	0x3d011f4e	0.031523995
7	0x3df83f20	0.12121415
8	0xbd69f774	-0.057120755
9	0x3d554ecb	0.052077096
10	0x3d5269a1	0.051370267
11	0xbc1941f7	-0.009354106
12	0x3d30516a	0.043046393
13	0xbd5bb3cf	-0.053638276
14	0xbd32c751	-0.043647114
15	0x3e5155c2	0.2044287
16	0xbdf55b38	-0.11980289
17	0xbcf6d5f0	-0.03013131
18	0x3c2f6ed3	0.010707575
19	0x3d7db293	0.06193788
20	0xbdeef8d1	-0.11668552
21	0xbd6a84b1	-0.05725545
22	0x3dd6aa41	0.10481692
23	0xbcce9d88	-0.025221601
24	0xbdb31349	-0.08743913
25	0x3e184680	0.14870644
26	0xbcf0a26f	-0.02937433
27	0x3dd51ee9	0.10406286
28	0xbdd376d9	-0.10325403
29	0x3db44f5f	0.08804201
30	0x3e99b7e8	0.30023122
31	0xbb6c96b2	-0.0036100564
32	0x3d98d9e0	0.07463431
33	0x3dd85c29	0.10564453
34	0x3dec4fd8	0.115386665
35	0x3d4e6b92	0.050395556
36	0x3e0abd7d	0.13548847
37	0x3d5c1e33	0.053739738
38	0x3d90abf0	0.070640445
39	0xbcee77fe	-0.029109951
40	0xbbc467e2	-0.005993829
41	0x3d683628	0.056692272
42	0x3df8f5c7	0.12156253
43	0x3da68aff	0.0813198
44	0xbd257a6d	-0.040399957
45	0x3e76575e	0.24056765
46	0x3d434f57	0.047683086
47	0xbce449d3	-0.027867233
48	0x3de06302	0.10956384
49	0x3d8bb28b	0.06821164
50	0x3ceff40c	0.029291175
51	0x3c34a1d7	0.011024914
52	0xbd16844e	-0.03674727
53	0x3cc84a23	0.024449414
54	0x3adc814e	0.0016823204
55	0xbd3de581	-0.04636145
56	0xbd31811c	-0.04333602
57	0xbc8dcba7	-0.017309023
58	0xbd0e9b12	-0.034815855
59	0xbe0c7271	-0.13715531
60	0xbd3aca61	-0.04560316
61	0x3df44979	0.11928076
62	0x3d6523d0	0.055942357
63	0xbe14a303	-0.14515309
64	0x3e05ce81	0.13067056
65	0x3cf1ba62	0.02950782
66	0x3d5e529f	0.054278012
67	0xbdc5c446	-0.09656577
68	0x3d8c2d19	0.06844539
69	0xbd5bd96a	-0.05367414
70	0x3d1f009d	0.038818944
71	0x3e47172f	0.19442438
72	0x3d6425c6	0.055700086
73	0x3dc59fcc	0.096496195
74	0xbda6d258	-0.08145589
75	0xbd197b14	-0.037470892
76	0x3dc98fc6	0.09841876
77	0xbb1e71de	-0.0024176757
78	0xbd306380	-0.04306364
79	0x3e4b9123	0.19879584
80	0xbdd143da	-0.1021802
81	0x3cddbaa4	0.027066536
82	0x3dccd7d2	0.10002102
83	0x3dd93e85	0.10607628
84	0x3dc2d4a7	0.095132165
85	0xbd164351	-0.03668529
86	0x3d7256e0	0.05916488
87	0xbdb3b5a7	-0.08774882
88	0xbde88e90	-0.11355317
89	0x3e74302f	0.23846506
90	0x3db42976	0.087969705
91	0x3d829caf	0.06377541
92	0xbdd43261	-0.103611715
93	0x3d2b2fab	0.041793507
94	0x3e1045be	0.14089105
95	0x3d9b3f3f	0.075804226
96	0xbd1b6dea	-0.03794662
97	0x3e00de3c	0.12584776
98	0xbd9fc5eb	-0.07801422
99	0xbd901b45	-0.07036451
100	0x3e04308d	0.12909146
101	0xbd3ba078	-0.04580733
102	0xbb951b90	-0.004550405
103	0x3dccad6f	0.09994017
104	0x3cdd170d	0.02698853
105	0x3cb9ae33	0.022666072
106	0x3d5701f7	0.05249211
107	0x3d2d99b4	0.04238291
108	0x3d3ce83c	0.046119913
109	0x3d42e4e5	0.047581572
110	0xbdd58244	-0.10425237
111	0xbd2e11f3	-0.042497586
112	0x3da9d7bb	0.082931004
113	0xbdd1250a	-0.10212143
114	0x3c8f911d	0.01752525
115	0xbd36ae3a	-0.04459975
116	0x3d513aa2	0.051081307
117	0x3e1f178d	0.15536328
118	0xbd8f216e	-0.06988798
119	0x3db58ef7	0.08865159
120	0x3d863ea2	0.06554915
121	0x3d958da9	0.0730241
122	0x3de7d104	0.113191634
123	0xbd18ebda	-0.0373343
124	0x3d2b4c49	0.041820798
125	0x3e3b79f7	0.18308245
126	0x3dfd4153	0.12365975
127	0x3d1a4f73	0.037673425
128	0x3c8248ef	0.015903918
129	0xbce90663	-0.028445428
130	0xbe10f20d	-0.14154835
131	0x3d8bc107	0.068239264
132	0x3d3e642f	0.04648226
133	0x3ce7d808	0.028301254
134	0xbc01c7d3	-0.007921177
135	0xbd8c721c	-0.06857702
136	0xbdebd655	-0.1151549
137	0x3e18ee81	0.14934732
138	0x3c94f072	0.01818106
139	0xbe32e6ba	-0.17470828
140	0x3d9831b4	0.07431355
141	0x3cc7e40f	0.024400739
142	0x3d0fbcef	0.03509229
143	0xbc9de6a8	-0.019275025
144	0x3e6729e6	0.22574577
145	0x3e32a85c	0.17447037
146	0xbd31a8e7	-0.04337397
147	0xbd8b011a	-0.067873195
148	0xbdb148aa	-0.08656438
149	0xbccf9c04	-0.025342949
150	0xbcd3e922	-0.025868002
151	0xbc7ae0fd	-0.01531243
152	0x3d2be117	0.04196271
153	0x3d41e173	0.047334146
154	0xbd9659f5	-0.07341377
155	0x3cc1869b	0.023623755
156	0x3c7b1b92	0.0153263975
157	0x3dda18d5	0.106492676
158	0x3dc39c2d	0.095512725
159	0xbca99074	-0.020698763
160	0xbd55b660	-0.05217588
161	0x3de000ac	0.10937628
162	0x3d9a62b4	0.075383574
163	0x3d1482bc	0.03625749
164	0x3dc36448	0.095406115
165	0xbcd97071	-0.026542874
166	0xbd108f87	-0.03529313
167	0xbe2f55d6	-0.17122588
168	0x3e52361a	0.2052845
169	0x3c9bc0b9	0.019012796
170	0xbc8ae334	-0.016954042
171	0x3d826f29	0.06368858
172	0xbd9193f3	-0.07108297
173	0x3e03725d	0.12836595
174	0xbd037281	-0.03209162
175	0x3d973e93	0.07384982
176	0x3db228d0	0.086991906
177	0x3c835277	0.016030533
178	0x3d99b0e9	0.07504446
179	0x3d970d72	0.07375611
180	0x3deaa25d	0.114567496
181	0x3b97bca7	0.0046306434
182	0x3d44831e	0.047976606
183	0x3deb7307	0.11496549
184	0x3d6a791f	0.057244416
185	0x3d3c7ef7	0.04601952
186	0xbd08165c	-0.03322445
187	0x3dc666b5	0.096875586
188	0xbc808106	-0.015686523
189	0x3e2b0904	0.16702658
190	0x3d135aec	0.03597538
191	0x3d8bbc6e	0.068230495
192	0x3e3204e4	0.17384678
193	0x3d8a76ca	0.067609385
194	0x3dcd61bd	0.10028408
195	0x3cd090fc	0.025459759
196	0x3d1655ae	0.036702804
197	0x3d91689d	0.071000315
198	0x3dd4600b	0.10369881
199	0x3e328e01	0.17436983
200	0x3d5cbc67	0.053890612
201	0x3d8cc01e	0.06872581
202	0x3dc8bfb2	0.09802188
203	0x3e478cb9	0.19487275
204	0x3de346ff	0.11097526
205	0x3c045bdc	0.008078542
206	0xbc180a02	-0.00927973
207	0xbdce94d2	-0.10086979
208	0x3d69b85e	0.057060592
209	0xbdbf50c0	-0.09341574
210	0xbd584f75	-0.05281015
211	0x3dea53f5	0.11441795
212	0x3ddc9fe3	0.107726835
213	0x3e2d92b2	0.16950491
214	0x3dc57614	0.09641662
215	0xbd86f54d	-0.06589756
216	0xbd1beeee	-0.038069658
217	0x3e12faea	0.14353529
218	0x3d504d7a	0.050855137
219	0x3d0cce1a	0.03437624
220	0xbdfe9583	-0.12430861
221	0x3bebad02	0.007192255
222	0xbdadd7e6	-0.08488445
223	0x3e6d1e7f	0.23156165
224	0xbcb2e051	-0.021835478
225	0xbd8d595b	-0.06901809
226	0xbbd2ad32	-0.006429338
227	0xbbdfd045	-0.0068302476
228	0x3da6bb6e	0.08141218
229	0x3d3e8383	0.046512138
230	0x3da65cfb	0.08123203
231	0xbc108419	-0.008820557
232	0x3e20f16f	0.157171
233	0xbcdd5039	-0.027015792
234	0x3e012165	0.12610395
235	0x3dddcc73	0.10830011
236	0x3c0cd4c6	0.008595651
237	0x3db7f73d	0.08982704
238	0x3e573cd8	0.21019304
239	0x3e083c74	0.13304311
240	0xbdf0713e	-0.11740349
241	0x3e1bd0dd	0.15216394
242	0x3dcfcc89	0.10146434
243	0xbdac4d5d	-0.084131934
244	0xbc97e524	-0.01854188
245	0xbdae9151	-0.08523811
246	0x3e1749d5	0.14774258
247	0xbcf19494	-0.029489793
248	0x3c802a48	0.015645161
249	0xbb8f98a6	-0.004382211
250	0xbd0f6a29	-0.03501335
251	0x3de3fc26	0.11132078
252	0xbe10b78e	-0.1413252
253	0x3d388063	0.045044314
254	0x3d00fb51	0.031489674
255	0x3d7c692e	0.061623745

bias f4 [256]
0	0xbdf2d8ff	-0.11857795
1	0xbce5ba3f	-0.02804291
2	0x3c00e564	0.007867191
3	0xbe1f92e2	-0.15583375
4	0xbe0112b2	-0.12604788
5	0xbdb8a29d	-0.09015391
6	0xbdb25b82	-0.0870886
7	0xbda4a503	-0.08039286
8	0xbe15da3f	-0.14634036
9	0xbd588612	-0.052862234
10	0xbd164161	-0.036683444
11	0x3d215d5e	0.039395683
12	0x3ca427fb	0.020038595
13	0xbca1f374	-0.019769408
14	0xbdf12c1c	-0.11775991
15	0x3c2ac88b	0.01042379
16	0xbd0b5816	-0.034019552
17	0xbc9be4fc	-0.019030087
18	0xbdf67463	-0.12033918
19	0x3c94ae4a	0.018149514
20	0xbdaebd63	-0.085322164
21	0xbda8181c	-0.082077235
22	0xbd9a7a9a	-0.07542916
23	0xbd243e65	-0.040098567
24	0xbd642382	-0.055697925
25	0xbce4731d	-0.027886922
26	0xbd00b089	-0.031418357
27	0xbd48365a	-0.04887996
28	0xbc4ef656	-0.012631973
29	0xbd730d63	-0.05933894
30	0xbdbda221	-0.09259439
31	0xbe133d19	-0.14378776
32	0xbd9e62ab	-0.07733663
33	0xbcc981f4	-0.0245981
34	0xbdd6f0ff	-0.10495185
35	0x3b5311f6	0.003220675
36	0xbda454bb	-0.080239736
37	0xbddedaaf	-0.10881554
38	0xbda49933	-0.08037033
39	0xbb08e9a8	-0.0020891223
40	0xbd2908d6	-0.041268192
41	0xbdc5c711	-0.096571095
42	0xbe75807a	-0.23974791
43	0xbe225623	-0.15853171
44	0xbe6b078c	-0.22952098
45	0xbdc68be5	-0.096946515
46	0xbd59064d	-0.052984525
47	0xbde11130	-0.109896064
48	0x3c9c111e	0.01905113
49	0xbd90de1b	-0.07073613
50	0xbe022c1f	-0.12712143
51	0xbda0ae59	-0.07845754
52	0xbd1f6f3b	-0.038924437
53	0xbcce03b8	-0.025148258
54	0xbb442eb0	-0.0029935054
55	0x3bf64a3f	0.007516175
56	0xbd15d453	-0.03657944
57	0xbd79001d	-0.060791124
58	0xbdac16a6	-0.08402757
59	0xbd3dddb5	-0.046354014
60	0xbd869dfa	-0.065731004
61	0xbd72abdb	-0.059245925
62	0x3c8b4450	0.017000347
63	0xbdd79906	-0.10527234
64	0xbd86a811	-0.06575025
65	0xbd34a07c	-0.044098362
66	0x3d5692a6	0.05238595
67	0xbd7f50ac	-0.062332794
68	0xbd1bd6ac	-0.038046524
69	0xbc2363e7	-0.009972549
70	0x3c103245	0.008801048
71	0xbdc19b14	-0.09453407
72	0xbce83a40	-0.028348088
73	0xbd99977b	-0.07499596
74	0xbd7d457e	-0.06183385
75	0xbe08b5e6	-0.13350639
76	0x3c9c6fb3	0.019096231
77	0xbce6c4c6	-0.02817
78	0xbd15ab01	-0.036540035
79	0xbdd75b91	-0.10515512
80	0xbe0e1c73	-0.1387804
81	0xbd0c3da9	-0.03423849
82	0xbd9234f0	-0.07139003
83	0xbdac505c	-0.08413765
84	0xbd8c9446	-0.068642184
85	0xbd9e2d11	-0.077234395
86	0xbe1d3d3f	-0.15355395
87	0xbc4ee174	-0.012626994
88	0xbd6e1a3e	-0.058130495
89	0x3998327a	0.00029029307
90	0xbdcbb65e	-0.09946893
91	0xbd282ee4	-0.041060343
92	0xbdca3ca9	-0.09874851
93	0xbd75ad97	-0.05998
94	0xbe359fe8	-0.1773678
95	0xbdd36ad8	-0.10323113
96	0xbe023cbc	-0.12718481
97	0x3ce6b7b8	0.028163776
98	0xbd2476fb	-0.04015253
99	0x3bc0e116	0.0058862073
100	0xbc9df9df	-0.019284187
101	0xbd0582be	-0.03259539
102	0xbe389db1	-0.18028904
103	0xbde68be2	-0.11257149
104	0x3d64a07f	0.055817124
105	0xbe09fd1e	-0.13475463
106	0xbd9c2733	-0.07624664
107	0xbd9968ab	-0.07490667
108	0xbd6e52a4	-0.05818428
109	0xbd0b08c3	-0.033943903
110	0xbd05be04	-0.032651916
111	0xbdbc4000	-0.091918945
112	0xbe271770	-0.16317534
113	0xbe082dfb	-0.1329879
114	0xbbe9a0c6	-0.0071297614
115	0xbe44b6bf	-0.19210337
116	0xbdba5a57	-0.09099262
117	0xbb333257	-0.0027343237
118	0xbd1dc345	-0.0385163
119	0xbcd6121b	-0.02613168
120	0xbd685f5e	-0.056731574
121	0x3c56e635	0.013116409
122	0xbd6a9ea3	-0.057280194
123	0xbdefcbca	-0.117087916
124	0xbc39cf43	-0.011340919
125	0xbcb91919	-0.022594975
126	0xbcd26e4e	-0.025687363
127	0xbdae18dd	-0.08500836
128	0xbd0920e7	-0.033478644
129	0xbda4d583	-0.08048537
130	0xbd041756	-0.032248817
131	0xbcf6abd1	-0.030111225
132	0xbda416ae	-0.08012138
133	0xbdb82624	-0.0899165
134	0xbe0acd6f	-0.13554929
135	0xbd8790f3	-0.06619444
136	0xbdd54ab8	-0.10414642
137	0xbe532ed2	-0.2062333
138	0xbdf087a0	-0.117446184
139	0xbdda2ebd	-0.10653446
140	0xbc81d8fb	-0.015850535
141	0xbe0bbb00	-0.13645554
142	0xbd9a98c3	-0.07548668
143	0xbdbfd618	-0.09367007
144	0x3cca2a48	0.024678364
145	0xbcf141a1	-0.02945024
146	0xbe1668b8	-0.14688385
147	0xbd39de45	-0.04537799
148	0xbe33043a	-0.17482081
149	0xbd57f61b	-0.05272494
150	0xbe0f5019	-0.13995399
151	0xbdb80007	-0.0898438
152	0xbd633f45	-0.05548026
153	0xbd9b49a8	-0.07582408
154	0xbd962b8a	-0.07332523
155	0xbd322d70	-0.043500364
156	0xbbd1eb72	-0.006406241
157	0xbdec756d	-0.11545835
158	0xbca7265c	-0.020404033
159	0xbce01fc8	-0.027358904
160	0xbdad58b7	-0.08464187
161	0xbd77ad4b	-0.060468
162	0x3c5a8030	0.013336226
163	0xbe0339ba	-0.1281499
164	0xbd906504	-0.07050517
165	0xbde1da2b	-0.1102794
166	0xbd0d3692	-0.03447587
167	0xbd7b3ceb	-0.061337393
168	0xbd855baf	-0.06511628
169	0xbd85e920	-0.06538606
170	0x3b6eaa54	0.0036417441
171	0xbd446d6f	-0.047955927
172	0x3c094aed	0.00837968
173	0xbd378d8a	-0.044812717
174	0xbe24397e	-0.16037557
175	0xbdb13988	-0.08653551
176	0xbb797aca	-0.0038067573
177	0x39277de1	0.00015973255
178	0xbe3d44fb	-0.18483345
179	0xbca01629	-0.019541817
180	0xbdc2f436	-0.09519236
181	0xbd5c347a	-0.053760983
182	0xbdd6c1fe	-0.1048622
183	0xbddf08b0	-0.10890329
184	0xbd87138e	-0.06595527
185	0xbd2597ce	-0.040427975
186	0xbcdbbbed	-0.026823008
187	0xbdba3c22	-0.09093501
188	0xbdcced76	-0.100062296
189	0xbd399936	-0.04531213
190	0xbbc31523	-0.0059534474
191	0xbdf31f25	-0.11871175
192	0xbd85c321	-0.065313585
193	0xbdf26ca9	-0.118371315
194	0xbc4268e0	-0.011865824
195	0xbe55a639	-0.2086419
196	0xbd9d18bb	-0.076707326
197	0xbdb5ae59	-0.08871145
198	0xbce8b6e8	-0.028407529
199	0xbe0dbc73	-0.13841419
200	0xbd84601f	-0.06463646
201	0x3c52e7b2	0.012872623
202	0xbdcceccc	-0.10006103
203	0xbd28f82d	-0.041252304
204	0xbc390028	-0.011291541
205	0x3b711e54	0.0036791759
206	0xbd4f9cc5	-0.050686616
207	0xbd6a0e29	-0.05714241
208	0xbdd82364	-0.10553625
209	0xbe06049c	-0.13087696
210	0xbd97ede7	-0.07418423
211	0x3c308d36	0.010775855
212	0xbd0e1de8	-0.03469649
213	0x3af72cd9	0.001885797
214	0xbdfb22e1	-0.12262512
215	0xbe24946a	-0.1607224
216	0xbdfb571c	-0.12272474
217	0xbe166e4b	-0.14690511
218	0xbbe8fda8	-0.0071103163
219	0xbd9c689e	-0.07637142
220	0xbdf1a5fe	-0.117992386
221	0xbd9f7c2e	-0.07787357
222	0xbda10e07	-0.07864004
223	0xbdac22c6	-0.0840507
224	0xbdc4a8b1	-0.09602488
225	0xbdce181c	-0.10063192
226	0xbd948aa2	-0.072530046
227	0xbce184f7	-0.027529223
228	0xbc3b7b68	-0.011442997
229	0x3cd65b31	0.02616653
230	0xbcd6958c	-0.026194356
231	0xbd433c87	-0.047665145
232	0xbd6ab460	-0.057300925
233	0xbc46180b	-0.012090693
234	0xbd0038d0	-0.03130418
235	0xbd8210c7	-0.06350856
236	0xbd303a01	-0.043024067
237	0xbd53d5d8	-0.05171761
238	0xbc900126	-0.017578673
239	0xbd2f962a	-0.042867817
240	0xbc0e6b6c	-0.008692604
241	0xbd13174e	-0.035910897
242	0xbe04cf0a	-0.12969604
243	0xbe188d06	-0.14897546
244	0xbdf45159	-0.11929578
245	0xbc703925	-0.014662062
246	0xbdbf64f3	-0.093454264
247	0xbdbb4c41	-0.09145404
248	0xbda5b2b7	-0.08090728
249	0xbcd2b55b	-0.025721243
250	0xbd87ff1a	-0.06640454
251	0xbd88c6f1	-0.0667857
252	0xbd1317fc	-0.035911545
253	0xbce814f9	-0.028330313
254	0xbd017ba2	-0.031612046
255	0xbc52baa8	-0.012861885

weight f4 [128, 256]
0	0x3d80f0d6	0.06295936
1	0xbad5aa39	-0.0016301341
2	0xbace0f1e	-0.0015721058
3	0xbde5de10	-0.11223996
4	0xbde3c134	-0.11120835
5	0x3e1b2609	0.15151228
6	0x3d58c015	0.05291756
7	0xba51e06a	-0.00080061576
8	0xbb936e5d	-0.0044992403
9	0xbca64d99	-0.020300673
10	0xbc4195e7	-0.011815525
11	0x3dc259a0	0.09489751
12	0xbdf0043f	-0.1171956
13	0x3d8260a6	0.063660905
14	0xbbead6ae	-0.007166705
15	0x3dd30f98	0.10305709
16	0x3dbe60c0	0.09295797
17	0x3cb6c614	0.022311248
18	0xbdc38643	-0.09547093
19	0xbd2a2164	-0.04153575
20	0x3e4142e2	0.1887317
21	0xbd126dec	-0.03574936
22	0x3c9d5aa7	0.019208265
23	0xbdba0ddd	-0.090846755
24	0x3ca68e12	0.020331416
25	0x3d84989c	0.064744204
26	0xbe271457	-0.16316353
27	0xbd543a8b	-0.051813643
28	0xbe058798	-0.13040006
29	0xbd36ad40	-0.044598818
30	0xbcf411a4	-0.029793568
31	0x3e07691f	0.13223694
32	0x3cdf3c65	0.027250478
33	0xbd1f595b	-0.038903575
34	0xba913b42	-0.0011080282
35	0x3dbb7e9f	0.091550104
36	0xbca8c9a8	-0.02060397
37	0x3d1aead7	0.037821617
38	0xbe0af761	-0.1357093
39	0x3bd758ee	0.0065718805
40	0x3bccb37a	0.006246981
41	0x3dc49f48	0.09600693
42	0xbad68d2a	-0.0016368974
43	0x3ba24a01	0.0049526696
44	0xbd3ea3ab	-0.046542805
45	0x3d8565ae	0.065135345
46	0xbd9028c3	-0.07039025
47	0xbdf392f6	-0.11893265
48	0xbc134430	-0.008988425
49	0xbd397032	-0.045273013
50	0xbd61b09f	-0.05510008
51	0xbd2eb934	-0.042657092
52	0xbdfde69a	-0.123974994
53	0x3cec2956	0.028828304
54	0x3d0d3828	0.034477383
55	0xbce80d31	-0.028326603
56	0x3d7356dc	0.059409007
57	0xbdc67ac0	-0.096913815
58	0x3db2ecfd	0.08736608
59	0x3e071eae	0.13195297
60	0x3d8b1404	0.06790927
61	0xbd94cebf	-0.07265996
62	0x3d7aaf53	0.06120236
63	0x3e4b9090	0.19879365
64	0xbdc27ae7	-0.09496098
65	0xbdcc3a84	-0.099720985
66	0x3d24a5cb	0.040197175
67	0x3cb08c1c	0.021551184
68	0xbd8cc0ce	-0.06872712
69	0x3b8bfb72	0.004271918
70	0xbce234c5	-0.027613053
71	0x3d355c05	0.04427721
72	0xbd87e30c	-0.06635103
73	0x3daad28d	0.083409406
74	0xbdb1605a	-0.08660956
75	0xbdc88521	-0.09791017
76	0x3c01ea44	0.007929388
77	0x3cf94da0	0.030432522
78	0xbbef8b1c	-0.0073102843
79	0x3d34ecfe	0.044171326
80	0xbc51dd1b	-0.012809063
81	0xbce34852	-0.027744446
82	0x3ca3535e	0.019937214
83	0xbd562194	-0.052278116
84	0x3d352cca	0.044232167
85	0x3d52338a	0.051318683
86	0xbd1a1157	-0.037614193
87	0xbda2a746	-0.07942061
88	0x3e46cd13	0.19414167
89	0x3d1ae146	0.037812494
90	0x3d67c6e3	0.056586158
91	0x3bee8779	0.007279333
92	0x3cacaf37	0.021079643
93	0xbe06d3e3	-0.13166766
94	0x3e43184e	0.1905224
95	0x3e174785	0.14773376
96	0x3c9c5d83	0.019087559
97	0xbde455db	-0.11149188
98	0xbd2b475a	-0.041816093
99	0x3c8e7437	0.0173894
100	0xbdbfabf2	-0.09358968
101	0x3dd5e773	0.10444536
102	0xbc3b7e42	-0.011443676
103	0x3d58db31	0.052943412
104	0x3d318e4f	0.043348607
105	0x3e0ab33d	0.13544936
106	0xbe0cb2ba	-0.13740054
107	0xbca44187	-0.020050777
108	0x3d9d0297	0.076665096
109	0xbd0fcf97	-0.035110082
110	0x3d870d5f	0.06594347
111	0x3c231c1a	0.00995543
112	0x3e42c0d6	0.19018874
113	0x3dc1aadc	0.09456417
114	0xbe410a71	-0.1885164
115	0xbd088e38	-0.033338755
116	0xbc8f53ee	-0.017496075
117	0x3ddac768	0.10682565
118	0xbd314445	-0.043277998
119	0xbd287f82	-0.041137226
120	0xbc5c66cb	-0.013452242
121	0xbc812433	-0.015764331
122	0x3c1fe63b	0.009759481
123	0xbc656244	-0.014000479
124	0x3db34aba	0.08754487
125	0xbbe75c28	-0.0070605464
126	0xbcdb731f	-0.026788292
127	0xbdf6c89b	-0.12049981
128	0xbd714423	-0.05890287
129	0xbe08b265	-0.13349302
130	0xbc87afe7	-0.016563369
131	0xbda24b5b	-0.07924529
132	0xbd9841f9	-0.07434458
133	0xbde11b39	-0.109915204
134	0x3d9b6904	0.075883895
135	0x3c879b33	0.016553497
136	0xbda0f0dd	-0.07858441
137	0xbca03242	-0.019555215
138	0xbe0bb087	-0.13641559
139	0xbe0ac229	-0.13550629
140	0xbced22f0	-0.028947324
141	0x3ce38cb3	0.027777052
142	0x3e0ca168	0.13733447
143	0x3d6c0837	0.05762502
144	0x3c2b014f	0.010437324
145	0xbde2471a	-0.11048718
146	0x3cc1d232	0.0236598
147	0x3d180113	0.0371104
148	0xbd4978a3	-0.049187314
149	0x3d2e1f1b	0.042510133
150	0xbdca8d02	-0.09890176
151	0xbd257090	-0.04039055
152	0x383d2cb1	4.5102734e-05
153	0xbd8d70f3	-0.06906309
154	0x3dc46a43	0.0959058
155	0xbe5370d5	-0.20648511
156	0xbca77526	-0.020441603
157	0x3dd853b9	0.10562844
158	0xbdf9e3e2	-0.12201668
159	0x3d32dd94	0.043668345
160	0x3bc662c1	0.006054253
161	0x3d95ca96	0.07314031
162	0x3d152196	0.036408983
163	0xba50f27b	-0.0007970703
164	0x3e26f54e	0.16304514
165	0xbdc15573	-0.09440126
166	0xbd620290	-0.055178225
167	0x3cff0f05	0.031135092
168	0x3e294f40	0.16534138
169	0xbcd241a4	-0.025666066
170	0x3d774bb7	0.06037494
171	0xbe2e444e	-0.17018244
172	0x3b01493f	0.0019727496
173	0x3d03cf22	0.03217996
174	0x3e4b0032	0.19824293
175	0xbde43537	-0.111429624
176	0xbd9d850c	-0.07691392
177	0x3cc2d1ef	0.023781745
178	0x3d394f99	0.045241926
179	0xbbc38d32	-0.0059677595
180	0x3e2d1c32	0.16905287
181	0xbd2885ce	-0.04114323
182	0x3dd49894	0.103806645
183	0x3d6d2a78	0.05790183
184	0x3d16ba41	0.03679872
185	0xbd768b99	-0.060191724
186	0xbd92dea5	-0.07171372
187	0xbd4bb0c0	-0.04972911
188	0x3e202a80	0.15641212
189	0x3c100523	0.008790287
190	0xbc7575a8	-0.014981665
191	0xbd3eb9ff	-0.0465641
192	0x3daf95fd	0.0857353
193	0xbc849594	-0.016184606
194	0xbcdff566	-0.027338695
195	0xbbdfb631	-0.006827139
196	0x3c46861b	0.012116934
197	0x3db742fc	0.08948323
198	0x3db5f58e	0.088847265
199	0xbc6dc30c	-0.014511835
200	0x3cda13eb	0.026620826
201	0xbd108fbd	-0.03529333
202	0xbdef3af2	-0.11681165
203	0xbddc5024	-0.10757473
204	0x3c90657c	0.017626517
205	0x3db43f52	0.0880114
206	0xbd9aae29	-0.0755275
207	0xbe0b2d39	-0.1359147
208	0xbba33b69	-0.0049814475
209	0x3afb38bf	0.0019166692
210	0xbcbe6f88	-0.023246542
211	0x3e2b1d21	0.1671033
212	0xbddbdb91	-0.10735238
213	0x3d2da9bf	0.04239821
214	0xbdf40f83	-0.11917021
215	0x3d69fd4a	0.05712632
216	0x3daa52eb	0.083165966
217	0xbaab507a	-0.0013070249
218	0xbddda790	-0.10822976
219	0xbde3c7da	-0.11122103
220	0x3d0f89b0	0.03504342
221	0xbddb49b7	-0.10707419
222	0x3d944690	0.07240021
223	0x3deb6e57	0.11495655
224	0xbd86b948	-0.06578308
225	0x3cd80db3	0.02637372
226	0xbd318f2f	-0.04334944
227	0xbd1765cf	-0.036962327
228	0x3e2f1a86	0.17099962
229	0x3c2ed470	0.010670766
230	0x3d8ca054	0.06866518
231	0x3dc1640f	0.09442913
232	0x3d29b69c	0.041433915
233	0xbd2c2ed1	-0.042036835
234	0xbde87dc6	-0.113521144
235	0x3c2f42e6	0.010697102
236	0xbbcc9346	-0.0062431423
237	0x3ca4133b	0.020028701
238	0x3ce8a29c	0.02839785
239	0x3d69bd06	0.057065032
240	0xbe01c4fb	-0.12672798
241	0x3be8adf7	0.0071008164
242	0xbd514ed7	-0.05110058
243	0xbd18d7f7	-0.037315335
244	0xbe28865d	-0.16457506
245	0xbba2e35e	-0.004970952
246	0x3c5222ff	0.0128257265
247	0x3dcd8d58	0.10036725
248	0x3db8774c	0.09007129
249	0x3db9a923	0.090654634
250	0xbc5c86c4	-0.013459865
251	0x3dbb16f8	0.0913524
252	0x3ca79941	0.02045882
253	0xbdaa924e	-0.08328687
254	0x3dc79916	0.09745996
255	0xbd83bffe	-0.06433104

bias f4 [128]
0	0xbd611e2e	-0.054960422
1	0xbd91fd93	-0.071284436
2	0xbe0e9cf9	-0.13927068
3	0xbcf39d38	-0.029738054
4	0xbb126a79	-0.0022341295
5	0xbd7a2e49	-0.061079297
6	0xbd18528b	-0.037188094
7	0x3cf3ac4b	0.029745242
8	0x3c2e4bea	0.0106382165
9	0x3d34b949	0.044122014
10	0xbd054195	-0.032533247
11	0xbb0be4e6	-0.002134615
12	0xbda1919d	-0.07889102
13	0xbe12c3a5	-0.14332445
14	0x3b3c9b97	0.0028779262
15	0xbd8b4cb9	-0.06801743
16	0xbd02ff81	-0.03198195
17	0x3d1cc474	0.03827329
18	0xbe025c46	-0.12730512
19	0x3d1e68bf	0.038674112
20	0x3d2f2964	0.042764083
21	0xbddd125e	-0.10794519
22	0x3d342438	0.043979853
23	0xbe1be25c	-0.15223068
24	0x3cde09e6	0.02710433
25	0xbd6049d7	-0.05475792
26	0x3c546443	0.012963357
27	0xbb61f550	-0.0034478493
28	0xbdaf8966	-0.085711285
29	0xbbbca432	-0.0057568783
30	0xbdbedeba	-0.093198255
31	0xbdaae0b3	-0.08343639
32	0xbcf34861	-0.029697599
33	0xbe09582a	-0.13412538
34	0xbd0dcb16	-0.034617506
35	0xbd910a07	-0.07081991
36	0xbdb8c0c9	-0.09021146
37	0xbd9e6f12	-0.07736029
38	0xbc081a20	-0.00830701
39	0xbdb38fec	-0.08767685
40	0x3c1f36c7	0.00971765
41	0xbe2788bd	-0.16360755
42	0x3cead96c	0.028668128
43	0xbd9ebcef	-0.0775088
44	0xbd2e3d82	-0.042539127
45	0xbe1cbafe	-0.15305707
46	0xbe5ba32d	-0.21448965
47	0xbe1e7340	-0.15473652
48	0xbe2b049c	-0.16700977
49	0xbe032846	-0.12808332
50	0xbce04232	-0.027375314
51	0xbd4e72a1	-0.050402287
52	0xbd8bdb5e	-0.0682895
53	0x3bc147ac	0.0058984365
54	0xbddde10c	-0.1083394
55	0xbde09347	-0.10965591
56	0xbc826664	-0.015917964
57	0xbda3cd43	-0.07998135
58	0xbdb1951d	-0.08671019
59	0xbdaabbf2	-0.08336629
60	0xbd3fd756	-0.04683622
61	0xbcac66d8	-0.021045133
62	0xbd94d925	-0.072679795
63	0xbd42e4c7	-0.04758146
64	0xbd81f1e0	-0.06344962
65	0xbdd4e816	-0.103958294
66	0x3cf3263c	0.029681318
67	0xbc7e0c6b	-0.01550589
68	0xbdad8f5e	-0.08474611
69	0xbd249956	-0.040185295
70	0x3ca1162a	0.019663889
71	0xbe3e2b52	-0.18571213
72	0xbe250cce	-0.16118166
73	0xbacfe955	-0.0015862385
74	0x3cbffaa5	0.023434946
75	0xbcbe2725	-0.023212025
76	0xbcf8f202	-0.030388836
77	0xbd1d8044	-0.0384524
78	0xbde2565f	-0.1105163
79	0xbd5377da	-0.05162797
80	0xbe00f46b	-0.12593238
81	0x3d11161b	0.035421472
82	0xbc2d3673	-0.010572064
83	0xbdc1ac3b	-0.094566785
84	0xbd689f98	-0.056792825
85	0xbe074233	-0.13208847
86	0xbdcccf78	-0.10000509
87	0xbd8688e5	-0.06569079
88	0xbd0c7b10	-0.03429705
89	0xbc07714c	-0.008266758
90	0xbd938661	-0.07203365
91	0xbcf3899c	-0.029728703
92	0xbc4ec1fd	-0.012619493
93	0xbc2b78f5	-0.01046585
94	0xbe22ef25	-0.15911539
95	0x3c94e79b	0.018176844
96	0xbdaa290f	-0.083086126
97	0xbdcf0a39	-0.10109372
98	0xbb24780c	-0.0025095968
99	0xbdc29d91	-0.0950271
100	0xbc64141f	-0.013920813
101	0xbd2e852d	-0.042607475
102	0xb9cb86b0	-0.00038819527
103	0xbd08ee57	-0.033430424
104	0xbd766651	-0.06015617
105	0xbd60fbfe	-0.05492782
106	0xbd4be364	-0.049777403
107	0xbd016eac	-0.031599686
108	0xbc1b1ddd	-0.009467569
109	0xbced7385	-0.028985748
110	0xbb4aa15d	-0.0030918934
111	0xbd7267dd	-0.059181083
112	0xbd8aafaa	-0.067717865
113	0xbb8c3200	-0.0042784214
114	0xbdfe4f47	-0.12417465
115	0xbdf4e141	-0.11957026
116	0xbe22edbb	-0.15911
117	0xba0e4fbf	-0.0005428753
118	0xbd1fca38	-0.03901121
119	0xbc2f650b	-0.010705243
120	0x3cb3658a	0.021899004
121	0xbdfb695c	-0.12275955
122	0xbd922fa6	-0.071379945
123	0xbd3a14be	-0.045429938
124	0xbe4d02f1	-0.20020653
125	0xbd5efa91	-0.054438177
126	0xbd403235	-0.04692288
127	0xbd21b6e3	-0.039481055

weight f4 [12, 128]
0	0x3c953ec0	0.018218398
1	0xbc54b9fa	-0.012983793
2	0xbc8735f5	-0.01650522
3	0x3ba13e2e	0.0049207425
4	0xbcc84d70	-0.024450988
5	0xbc4948cb	-0.012285422
6	0xbd3bf640	-0.04588914
7	0xbcef043e	-0.029176828
8	0x3a70d57b	0.00091870845
9	0xbd12a698	-0.035803407
10	0xbcbc5be1	-0.02299303
11	0x3dc28e29	0.09499771
12	0xbd010a44	-0.03150393
13	0x3d9f891b	0.07789823
14	0xbd5c09ae	-0.05372017
15	0xbd00d3fd	-0.031452168
16	0x3acb84fc	0.0015527303
17	0xbc7c6ee9	-0.015407302
18	0x3cc24584	0.023714788
19	0xbd560bad	-0.05225723
20	0xbd348f51	-0.04408199
21	0x3d18c75e	0.037299506
22	0xbd613299	-0.054979894
23	0x3cc5cb73	0.024144864
24	0xbd91df55	-0.07122675
25	0xbcbba176	-0.022904139
26	0x3b545f39	0.003240539
27	0xbca62277	-0.020280106
28	0xbdb1c59e	-0.086802706
29	0xbc0f3a86	-0.00874198
30	0xb9cc4317	-0.00038959898
31	0x3d5499e0	0.05190456
32	0x3ca311a5	0.019905875
33	0xbc15909d	-0.009128717
34	0x3b39953f	0.0028317717
35	0x3d0ad3a7	0.033893254
36	0xbbe429d2	-0.006962993
37	0xb9d9b5df	-0.0004152497
38	0x3d9355cb	0.07194098
39	0x3d6f4279	0.058413003
40	0xbcc64f36	-0.024207693
41	0xbc2785cc	-0.010224771
42	0x3cfe370d	0.03103211
43	0x3d80282b	0.062576614
44	0x3bded267	0.0067999843
45	0x3c910a54	0.01770512
46	0x3d0b5b9e	0.03402292
47	0x3cdc10a6	0.026863407
48	0xbca7160c	-0.020396255
49	0xbd0b1f57	-0.033965435
50	0xbbf3dee4	-0.007442342
51	0xbca1b457	-0.019739313
52	0xbcf5bd3a	-0.029997457
53	0x3c951fec	0.018203698
54	0xbd233e5b	-0.03985439
55	0xbc63d54e	-0.013905836
56	0xbcfa3b7d	-0.030545944
57	0x3d0b315b	0.033982616
58	0x3cc0fa34	0.023556806
59	0x3b989354	0.0046562348
60	0xbd1c1e25	-0.038114686
61	0xbdf0f202	-0.11764909
62	0x3c49090d	0.012270224
63	0x3d114b01	0.03547192
64	0xbc58fe87	-0.013244278
65	0x3db5bee5	0.08874301
66	0xbd692c23	-0.056926858
67	0xbc0dbfc5	-0.008651678
68	0x3ca41d0b	0.02003338
69	0xbc1b0080	-0.009460568
70	0xbce6debb	-0.028182378
71	0x3c8487f6	0.016178112
72	0x3c13fae3	0.009031984
73	0xbc883c74	-0.016630389
74	0x3ca08699	0.019595431
75	0xbb55a562	-0.0032599797
76	0x3cf631fa	0.030053128
77	0x3d5c33a2	0.05376018
78	0x3ba08b54	0.0048994217
79	0x3cd3ecac	0.02586969
80	0xbc09fe6e	-0.008422477
81	0x3ac93c5f	0.0015353075
82	0xbcc60d5e	-0.024176296
83	0x3c0d2e32	0.008616971
84	0x3d5fe364	0.054660216
85	0x3d98c67b	0.07459732
86	0x3d34bd87	0.04412606
87	0x3cde5752	0.027141247
88	0xbd39cf7e	-0.045363896
89	0xba6b8bf6	-0.00089853944
90	0xbcfaedec	-0.030631028
91	0x3dd9b18b	0.10629567
92	0xbd93c830	-0.07215917
93	0xbcd7e02f	-0.026352016
94	0x3a2aa67b	0.0006509793
95	0xbbb68c54	-0.0055709276
96	0x3d80cc44	0.062889606
97	0x3d578540	0.05261731
98	0xbd7556df	-0.0598973
99	0x3d0a0eaa	0.03370539
100	0x3c83fb95	0.016111175
101	0x3d361541	0.044453863
102	0x3cfec40b	0.03109934
103	0xb9a4602b	-0.00031352168
104	0xbc00c61d	-0.007859734
105	0xbc2693d6	-0.010167083
106	0x3c231673	0.009954083
107	0x3d84a88e	0.06477462
108	0x3bd2bd89	0.0064312858
109	0xbc57ac20	-0.013163596
110	0xbce7b372	-0.028283808
111	0xbc2fc5c0	-0.0107283
112	0xbd45349e	-0.048145883
113	0xbc5c9156	-0.013462385
114	0x3baca2f5	0.0052684494
115	0x3ce8b2a2	0.028405491
116	0x3cf4326c	0.0298092
117	0xbd4c4d56	-0.04987844
118	0xbd21747b	-0.039417725
119	0xbd03d2bc	-0.032183394
120	0x3d986c85	0.074425735
121	0x3d375893	0.044762205
122	0xbbfebab0	-0.0077737197
123	0x3d161779	0.03664348
124	0xbc9e6160	-0.019333541
125	0xbd345b00	-0.044032097
126	0x3c818ace	0.015813258
127	0xbd1d22e7	-0.038363364
128	0x3cca36e4	0.024684377
129	0xbd058f79	-0.03260753
130	0x3c8e06dd	0.017337257
131	0xbc70abe1	-0.014689417
132	0xbc807996	-0.015682977
133	0x3ba2f698	0.004973244
134	0x3dc5e5ea	0.09662993
135	0x3d0d602c	0.034515545
136	0xbbdc9ce6	-0.006732571
137	0xbcf3ccee	-0.029760804
138	0x3c39fc1f	0.011351614
139	0x3de9d91d	0.11418364
140	0xbb5d7a96	-0.003379499
141	0xbc8d242c	-0.017229162
142	0x3d5fe24b	0.05465917
143	0x3d55e261	0.052217845
144	0xbc87988d	-0.016552234
145	0x3c0632af	0.008190795
146	0x3caf5f4b	0.021407744
147	0x3d7b4cca	0.06135253
148	0xbd511784	-0.051047817
149	0x3c15456b	0.009110789
150	0x3d8d4dca	0.06899603
151	0xbdd78a70	-0.10524452
152	0x3c874289	0.016511219
153	0x3d317b3c	0.043330416
154	0xbc83f431	-0.01610765
155	0x3c415a95	0.011801382
156	0xbca7d693	-0.02048806
157	0xbcc745ad	-0.024325216
158	0x3dc3300b	0.09530648
159	0x3d1d5647	0.03841236
160	0x3c4bb6f8	0.01243376
161	0x3bc0264a	0.0058639394
162	0x3d83d3a9	0.06436855
163	0x3c6746ab	0.01411597
164	0xbd9214bc	-0.07132861
165	0xbc679edb	-0.014136995
166	0xbce77032	-0.028251741
167	0x3d04c4d1	0.03241426
168	0x3d0128fc	0.031533226
169	0x3d19339a	0.037402727
170	0x3db8a90c	0.09016618
171	0x3ca267a4	0.01982481
172	0x3d3e71b6	0.046495162
173	0x3d39048c	0.045170352
174	0x3d15d470	0.03657955
175	0xbd9a0120	-0.07519746
176	0xbd3e65c9	-0.04648379
177	0xbc22b9d3	-0.009931999
178	0xbda46d83	-0.080287
179	0x3cc5e587	0.024157299
180	0xbddd7a0e	-0.10814296
181	0xbd5631d1	-0.052293602
182	0xbd5e2a37	-0.054239478
183	0xbdac14b7	-0.084023885
184	0xbd2b4a6c	-0.04181902
185	0x3da76f58	0.08175534
186	0x3d2aa1e3	0.041658293
187	0x3e1df0ef	0.1542394
188	0xb98460f9	-0.00025249252
189	0xbd2e84cf	-0.042607125
190	0xbb955c34	-0.0045581106
191	0xbd51ccbf	-0.05122065
192	0xbd728af5	-0.05921455
193	0xbbe5edcd	-0.0070168735
194	0xbd848c34	-0.06472054
195	0x3c80ff44	0.01574672
196	0x3d08cc31	0.033397857
197	0x3ca57db4	0.020201541
198	0x3d2671cb	0.040635865
199	0x3ce3922b	0.02777966
200	0x3d816a20	0.0631907
201	0x3d3ed912	0.046593733
202	0xbdac07fc	-0.083999604
203	0xbd261eab	-0.04055659
204	0x3cfeaf6a	0.031089503
205	0xbdacc6f6	-0.08436386
206	0xbcd08455	-0.025453726
207	0xbce4817f	-0.02789378
208	0xbdfecb43	-0.12441113
209	0xbc9ec147	-0.019379271
210	0xbbc45d45	-0.005992564
211	0x3dd70c67	0.105004124
212	0xbac1b109	-0.0014777492
213	0xbd40a344	-0.047030702
214	0xbc4105e5	-0.0117811905
215	0xbdad205a	-0.08453436
216	0x3db7f94c	0.089830965
217	0x3d2f3f9c	0.042785272
218	0x3ddb7323	0.1071532
219	0x3d1a1499	0.0376173
220	0xbb715768	-0.003682578
221	0xbc6e1e13	-0.014533537
222	0xbcd37fae	-0.025817718
223	0x3cc470d2	0.023979578
224	0x3d65631b	0.056002717
225	0x3d11fc66	0.035641097
226	0x3cc5d6ba	0.024150241
227	0x3b981d2a	0.0046421485
228	0x3b8f658e	0.00437612
229	0x3dadfe10	0.08495724
230	0x3dd728fc	0.10505864
231	0x3c610e50	0.0137363225
232	0x3cb94461	0.022615613
233	0x3ce57c73	0.028013444
234	0x3dfa717c	0.12228677
235	0xbc071eda	-0.008247102
236	0xbdcd6ce3	-0.10030534
237	0x3d7434d5	0.059620697
238	0x3d636274	0.055513814
239	0x3d2915f0	0.041280687
240	0xbc98fadb	-0.018674305
241	0xbc04ecc7	-0.008113093
242	0x3c80e97a	0.01573633
243	0x3d081203	0.033220302
244	0xbc9547fb	-0.0182228
245	0xbd01ea3a	-0.031717516
246	0x3d5700b9	0.052490924
247	0xbd2518bd	-0.040306795
248	0x3dc34946	0.0953546
249	0x3ccae7fa	0.024768818
250	0xbdcbfca2	-0.09960295
251	0xbce9d1e7	-0.028542472
252	0xbd2154a9	-0.03938738
253	0xbd58e065	-0.052948374
254	0xbdbfe1e4	-0.09369257
255	0xbddd9b16	-0.10820596

bias f4 [12]
0	0xbcd7924f	-0.026314883
1	0x3d6eeb18	0.05832967
2	0xbce9bc78	-0.028532252
3	0x3e09d826	0.1346136
4	0xbd77b408	-0.060474426
5	0xbe0a1540	-0.13484669
6	0xbe2fdfac	-0.17175168
7	0x3e11b4a3	0.14229064
8	0xbc811610	-0.01575759
9	0x3e1e40ac	0.15454358
10	0x3e852f4d	0.2601265
11	0xbd814fe8	-0.06314069
