deploy/pre_train/go2/policy_1.pt (torch, 774536 bytes, 8 tensors)

weight f4 [512, 48]
0	0xbd0d0e5c	-0.034437522
1	0xbe8453ae	-0.25845093
2	0x3db3c789	0.08778293
3	0xbd726b94	-0.059184626
4	0x3f03391e	0.5125903
5	0xbcebeea1	-0.02880031
6	0xbef76840	-0.48321724
7	0xbed43d6f	-0.4145312
8	0x3dae8ed8	0.08523339
9	0xbce17f94	-0.027526654
10	0x3d681da1	0.05666888
11	0x3d51742b	0.051136177
12	0x3e7d0fb0	0.24713016
13	0x3e2da111	0.16955973
14	0xbde4ea1d	-0.11177466
15	0xbe4e518a	-0.20148292
16	0xbe248876	-0.1606768
17	0xbe49dfd9	-0.19714297
18	0xbdd6c0fd	-0.10486028
19	0x3bf7e245	0.007564815
20	0x3e648dcd	0.22319718
21	0x3e67466c	0.22585458
22	0x3e9bf761	0.30462173
23	0x3dafca8e	0.08583556
24	0xbdf66b2f	-0.120321624
25	0xbe5d59ee	-0.21616337
26	0xbdc6c939	-0.09706349
27	0x3ee7146c	0.45132768
28	0xbeba8ad7	-0.3643405
29	0xbe9e505c	-0.30920684
30	0xbd7f0105	-0.06225683
31	0x3e83fb3b	0.2577761
32	0x3eabfc23	0.33590803
33	0xbe34d62d	-0.17659827
34	0xbd251b1b	-0.040309053
35	0x3db946bf	0.09046697
36	0xbcf03ba8	-0.029325321
37	0xbd913bd3	-0.07091489
38	0xbd17fd2d	-0.03710668
39	0x3df15926	0.11784582
40	0xbc921770	-0.017833441
41	0xbd680c5d	-0.056652416
42	0x3bdeca74	0.0067990366
43	0x3b669d5c	0.0035189008
44	0x3bcc76d1	0.00623975
45	0xbd73f733	-0.05956192
46	0xbca6d22d	-0.020363891
47	0x3b02ee71	0.0019978548
48	0xbe25ac64	-0.16179043
49	0x3de8a786	0.113600776
50	0x3e07875a	0.13235226
51	0xbe1c4445	-0.15260418
52	0x3dd7edf8	0.10543436
53	0xbecdb02b	-0.40173468
54	0x3f21584f	0.63025373
55	0x3c10deab	0.008842151
56	0x3e12f506	0.14351282
57	0x3cc37848	0.023861066
58	0xbe432ca6	-0.19060001
59	0x3de11ecc	0.10992202
60	0xbe63ce11	-0.22246577
61	0xbd952968	-0.07283288
62	0xbd870459	-0.06592626
63	0xbed134fe	-0.40860742
64	0x3dd53ad5	0.10411612
65	0x3c9ab222	0.018883768
66	0xbea48f9e	-0.3214082
67	0xbd50de3a	-0.05099318
68	0x3de86ee2	0.11349274
69	0x3d7ebade	0.06218993
70	0xbe0a62df	-0.13514279
71	0xbe282745	-0.1642123
72	0x3e113c4e	0.1418316
73	0x3e17b982	0.1481686
74	0xbd01f69c	-0.031729326
75	0x3e46136b	0.19343345
76	0xbd6d7bae	-0.05797928
77	0x3e89a3d5	0.26882806
78	0x3e248e3a	0.1606988
79	0xbe25d527	-0.16194592
80	0xbd856aad	-0.065144874
81	0xbe42aa40	-0.19010258
82	0x3e9cf9d1	0.30659345
83	0x3e932898	0.28741908
84	0xbb7575cf	-0.0037454253
85	0x3dc8db77	0.098074846
86	0x3db2c1aa	0.08728345
87	0xbd930c41	-0.071800716
88	0x3d3834a9	0.044972096
89	0xbd8e0da6	-0.06936197
90	0xbd1c7d08	-0.038205177
91	0xbd58976c	-0.052878782
92	0xbd23ff6b	-0.040038507
93	0xbe1a3cea	-0.150623
94	0x3d24b064	0.04020728
95	0xbe0a687d	-0.13516422
96	0x3d56ed62	0.05247248
97	0xbd48f64b	-0.04906301
98	0xbd9d2122	-0.07672335
99	0x3dc94779	0.098280855
100	0x3df09903	0.11747935
101	0x3f5c89fa	0.86148036
102	0x3d8b2e24	0.0679591
103	0xbe41cbd4	-0.1892541
104	0x3d3a3189	0.045457397
105	0xbdbef1a5	-0.09323434
106	0x3d7fe226	0.06247153
107	0xbf585db5	-0.84517986
108	0x3ede3ead	0.43407193
109	0x3e7e0436	0.24806294
110	0x3ed31b83	0.41231927
111	0x3d2cc14b	0.042176526
112	0xbcf61a1a	-0.030041743
113	0xbe5cf0e1	-0.21576263
114	0xbe2c7e4f	-0.16845058
115	0xbcb7ce0d	-0.02243712
116	0x3da10b96	0.07863538
117	0x3dcbd656	0.09952991
118	0xbe78341c	-0.24238628
119	0x3e307919	0.17233695
120	0x3e92a579	0.2864187
121	0xbd49641f	-0.04916775
122	0x3ea08a0f	0.3135533
123	0xbe015f96	-0.1263412
124	0xbe0796b0	-0.13241076
125	0x3e1e7c20	0.15477037
126	0x3e235e1b	0.15953867
127	0x3b1e5229	0.0024157858
128	0xbda1d6cb	-0.07902297
129	0xbd763990	-0.06011349
130	0xbde751b0	-0.112948775
131	0x3b7cc78b	0.0038571085
132	0x3d789df5	0.060697515
133	0x3c893bcd	0.016752148
134	0xbdcb9ddd	-0.099422194
135	0x3a1d8636	0.00060090737
136	0x3cea94b9	0.02863537
137	0x3d68ae2a	0.05680672
138	0xbc435c96	-0.01192393
139	0xbd38535a	-0.045001365
140	0x3d47bfc7	0.048766878
141	0xbdf1f32c	-0.118139595
142	0x3c811d08	0.015760913
143	0xbd96b73b	-0.07359167
144	0xbd148990	-0.036264002
145	0x3e994c31	0.29940942
146	0xbd4e4f72	-0.050368734
147	0x3e729893	0.23691015
148	0xbdb68365	-0.0891178
149	0x3ed5997d	0.41718665
150	0xbd9a3ac7	-0.07530742
151	0xbdbede45	-0.09319738
152	0x3d571412	0.052509375
153	0x3e1e8fc9	0.15484537
154	0xbdee9f8d	-0.11651526
155	0xbf296d79	-0.66182667
156	0x3e4a9cbc	0.19786352
157	0xbe3ba9ca	-0.18326488
158	0x3e95d203	0.2926179
159	0x3d894a2c	0.067036
160	0x3aef9113	0.0018277488
161	0x3c85a6ef	0.016314952
162	0xbea7cb16	-0.3277213
163	0xbd9fffa7	-0.07812434
164	0x3ec2d97f	0.3805656
165	0x3eac388c	0.33636892
166	0xbcf3edc7	-0.029776467
167	0x3ed4f127	0.41590235
168	0xbbbc123a	-0.0057394775
169	0x3da4fa66	0.08055572
170	0xbc5ba003	-0.013404849
171	0x3dd8755a	0.10569258
172	0xbeabb744	-0.33538258
173	0x3dd870fb	0.10568424
174	0xbe6ecd1e	-0.23320433
175	0xbe955725	-0.29168049
176	0xbd977fbe	-0.07397412
177	0xbe484a1e	-0.19559523
178	0x3b9f9111	0.004869588
179	0xbd33688c	-0.043800876
180	0x3d08326f	0.033251222
181	0x3bae7161	0.0053235744
182	0xbd3d44e3	-0.046208274
183	0x3d1a3b3c	0.037654147
184	0x3adfde12	0.0017079732
185	0xbbe946d9	-0.0071190414
186	0x3d51ec44	0.05125071
187	0x3d7133ce	0.058887295
188	0xbd0fb8c6	-0.035088323
189	0xbd4b0349	-0.04956368
190	0x3cc96f29	0.024589138
191	0xbd319b5c	-0.043361053
192	0xbcb225db	-0.021746567
193	0x3ba197b3	0.004931414
194	0x3d575645	0.052572507
195	0x3c1b8ae2	0.009493561
196	0xbe18bb9a	-0.14915314
197	0x3eec6bd8	0.46176028
198	0x3d9cda6c	0.07658848
199	0xbddc9599	-0.10770721
200	0x3d8fea32	0.07027091
201	0xba355e84	-0.0006918686
202	0xbd8224a3	-0.06354644
203	0xbf0e2832	-0.55530083
204	0xbe97fb91	-0.29684117
205	0xbcf1d9d2	-0.02952281
206	0x3ea4f762	0.32219988
207	0xbf04bb44	-0.51848245
208	0xbc6eca79	-0.01457464
209	0x3e4c7a0a	0.19968429
210	0xbe4e40b7	-0.20141874
211	0xbeb8a318	-0.3606193
212	0x3e83c851	0.25738767
213	0xbde1bb5a	-0.110220626
214	0xbe10725c	-0.14106125
215	0x3e0c1cb1	0.1368282
216	0xbd9605fe	-0.07325362
217	0x3e621f88	0.2208234
218	0xbcc7ea2a	-0.02440365
219	0x3c479602	0.012181761
220	0xbda3a83e	-0.07991074
221	0xbe31ab64	-0.17350537
222	0x3e0ac941	0.13553335
223	0xbe153986	-0.14572725
224	0x3e3c2253	0.18372469
225	0xbe14c315	-0.14527543
226	0xbe9abe60	-0.3022337
227	0x3e859768	0.26092076
228	0xbd790ecb	-0.060805123
229	0x3c9fc4a4	0.019502945
230	0xbc53db55	-0.012930711
231	0xbd53446c	-0.051578924
232	0x3bb70105	0.0055848383
233	0x3a61d803	0.0008615257
234	0xbd5727ab	-0.052528065
235	0x3c5fc0f4	0.013656843
236	0xbd398efc	-0.045302376
237	0x3cc1f7d2	0.02367774
238	0xbcf5d1f6	-0.030007344
239	0x3cf8882d	0.030338371
240	0x3d87d51f	0.066324465
241	0xbe56a81b	-0.20962565
242	0x3dc37651	0.095440514
243	0xbc38208b	-0.011238228
244	0xbd97ebe2	-0.07418038
245	0xbd64edfc	-0.055891022
246	0xbdbc1fd8	-0.09185761
247	0xbdb829c1	-0.08992339
248	0x3e012fef	0.12615941
249	0xbd77371a	-0.060355283
250	0xbddc79ec	-0.10765442
251	0xbf108b73	-0.5646278
252	0x3e76c1ff	0.24097441
253	0x3c98c82c	0.018650137
254	0xbe394b8c	-0.18095225
255	0x3ea06661	0.3132811

bias f4 [512]
0	0xbdcadad2	-0.09905018
1	0xbe57946a	-0.21052709
2	0x3dd81b34	0.105520636
3	0xbd55d870	-0.052208364
4	0x3d2a9072	0.04164166
5	0xbe82e630	-0.25566244
6	0xbe1991cc	-0.14997023
7	0xbe0882d2	-0.13331154
8	0x3c60dc38	0.013724379
9	0x3dd4c15b	0.10388442
10	0xbd5c6246	-0.05380466
11	0x3e3cb030	0.18426585
12	0x3e150c74	0.14555532
13	0x3ddee7d1	0.10884059
14	0xbcc60402	-0.024171833
15	0xbe2c00f4	-0.16797239
16	0xbe188cd5	-0.14897473
17	0x3dd813bd	0.1055064
18	0xbe166673	-0.14687519
19	0xbc95ff41	-0.018310191
20	0xbc8fa92a	-0.017536718
21	0xbdaad2e2	-0.08341004
22	0xbe1fd48b	-0.15608422
23	0xbd5c4c79	-0.053783868
24	0xbdd1833f	-0.10230111
25	0x3e02a23c	0.127572
26	0xbe1099e5	-0.14121206
27	0x3da0a760	0.07844424
28	0x3dc9dd21	0.0985663
29	0x3df25d58	0.1183421
30	0x3c9425ca	0.018084425
31	0xbe5624a9	-0.20912422
32	0xbe03f29a	-0.12885514
33	0xbd76127e	-0.06007623
34	0xbe2d23f7	-0.16908251
35	0x3d38ee4c	0.045149133
36	0x3dc8b8b4	0.09800854
37	0x3d94696f	0.07246672
38	0x3d975a5d	0.07390282
39	0xbd9605e9	-0.07325346
40	0x3e159d8a	0.14610878
41	0xbe21c936	-0.15799412
42	0xbca030f8	-0.0195546
43	0x3e482344	0.19544703
44	0xbd6585b7	-0.056035724
45	0x3cce02fd	0.02514791
46	0xbe278458	-0.16359079
47	0xbe442d92	-0.19158009
48	0xbe00e216	-0.12586245
49	0x3daa1a3a	0.083057836
50	0xbdfd1e79	-0.12359328
51	0xbb958cc0	-0.004563898
52	0x3dd66092	0.10467638
53	0xbde4e2f8	-0.11176103
54	0xbd8c6218	-0.068546474
55	0x3d6f4761	0.05841768
56	0x3cdbb28e	0.02681854
57	0xbdac8b5f	-0.084250204
58	0x3dc20912	0.09474386
59	0xbe2c58da	-0.16830769
60	0x3d4756f1	0.0486669
61	0xbd25bf1e	-0.040465467
62	0x3db10644	0.08643773
63	0x3dcfaf7c	0.10140893
64	0xbdf62576	-0.12018864
65	0x3d659f3a	0.056060053
66	0x3cbc3f5b	0.022979429
67	0x3cac4ddf	0.021033226
68	0x3a8d8664	0.0010797498
69	0x3d1bcef8	0.038039178
70	0xbe2c5c87	-0.16832171
71	0xbe0619ef	-0.1309583
72	0xbdc88452	-0.09790863
73	0x3d1aae59	0.037763927
74	0xbe704f67	-0.2346779
75	0x3dd82dd2	0.105556145
76	0xbd252fd0	-0.0403288
77	0xbd9de998	-0.0771057
78	0x3e10d5fb	0.14144127
79	0xbe288ff0	-0.16461158
80	0x3c889e0a	0.016676921
81	0x3defc415	0.117073216
82	0xbc6a18aa	-0.014288107
83	0xbd4201e8	-0.0473651
84	0xbd4020bf	-0.04690623
85	0x3d33b7c4	0.043876424
86	0x3ba04e8d	0.0048921765
87	0x3a4e9075	0.0007879802
88	0xbdf644c4	-0.12024835
89	0x3ce90f19	0.028449582
90	0xbde5e11e	-0.11224578
91	0x3e049089	0.12945761
92	0x3c5f8da6	0.013644611
93	0xbd977124	-0.07394627
94	0x3d0491ad	0.03236549
95	0xbdff7695	-0.124737896
96	0xbd3008e6	-0.042977236
97	0x3dcb521a	0.09927769
98	0xbd6394ac	-0.055561706
99	0xbd3a7a54	-0.045526817
100	0xbe0e0e92	-0.13872746
101	0xbd858a38	-0.06520504
102	0x3d5c0163	0.05371226
103	0xbcec85b7	-0.028872354
104	0x3d9467f7	0.07246392
105	0xbd1e6947	-0.03867462
106	0xbe3dd21c	-0.18537182
107	0xbde94efc	-0.11392018
108	0xbd771b21	-0.060328607
109	0xbdb1435d	-0.08655427
110	0x3c9fbaba	0.019498218
111	0xbe183553	-0.14864092
112	0x3d480fd6	0.048843227
113	0xbdd95622	-0.10612132
114	0x3d42a32e	0.0475189
115	0x3bd1c85a	0.0064020576
116	0x3d565a9c	0.052332506
117	0xbb6c6824	-0.0036072815
118	0x3e1709c3	0.14749818
119	0xbcabbd09	-0.020964162
120	0xbe06d4a9	-0.13167061
121	0xbe72fafd	-0.23728557
122	0xbdf5f108	-0.12008864
123	0x3c5fb072	0.013652908
124	0xbd23b409	-0.039966617
125	0xbe140943	-0.14456658
126	0x3d2384fb	0.039921742
127	0xbdea9c72	-0.11455621
128	0xbe1dd17a	-0.1541194
129	0xbe073234	-0.13202745
130	0x3d893348	0.06699234
131	0xbd26d779	-0.040732834
132	0x3d820b52	0.063498154
133	0xbda1a26d	-0.078923084
134	0x3d1b6d57	0.03794607
135	0x3b84c86d	0.004052213
136	0xbe46cf1c	-0.19414943
137	0x3d8fb0e1	0.07016159
138	0x3de8f82e	0.113754615
139	0x3ddeda2c	0.10881457
140	0xbdfdefd3	-0.123992585
141	0x3d01d87f	0.031700607
142	0x3d21d864	0.039513007
143	0xbc6c5f95	-0.014427085
144	0x3d1c4516	0.038151823
145	0xbcc8f368	-0.024530128
146	0x3c37e8a6	0.011224901
147	0xbda05e42	-0.07830478
148	0xbd9f3c92	-0.07775225
149	0x3be9b4d7	0.0071321535
150	0xbe13b501	-0.14424516
151	0x3c3b1e5c	0.011420812
152	0x3d49cc85	0.04926731
153	0xbe66f7d6	-0.2255548
154	0xbdeefa32	-0.11668815
155	0xbd0c5a0f	-0.034265574
156	0xbbd42c4c	-0.006475007
157	0xbe2490c2	-0.16070846
158	0x3e119f03	0.14220814
159	0xbb8a3857	-0.004218142
160	0xbd381251	-0.044939343
161	0xbc5d309a	-0.013500357
162	0xbd5ffd04	-0.054684654
163	0xbd7a1ad7	-0.061060753
164	0xbe4a5f03	-0.19762807
165	0xbda97ab5	-0.08275358
166	0xbe34637c	-0.17616075
167	0xbc6da725	-0.014505182
168	0xbe42c906	-0.19021997
169	0x3c94cb8b	0.018163463
170	0xbe31c541	-0.17360403
171	0xbdc2db61	-0.095144995
172	0xbdbda215	-0.0925943
173	0x3dc3a3d1	0.0955273
174	0xbdab8cea	-0.083764866
175	0xbe035155	-0.12823994
176	0xbe04476c	-0.1291787
177	0xbdf30a0d	-0.118671514
178	0xbe2664d8	-0.16249406
179	0xbe3e1ff2	-0.18566874
180	0xbd4b2e34	-0.04960461
181	0xbc014cb0	-0.007891819
182	0x3e16e82f	0.14737009
183	0xbe4ffb8f	-0.20310806
184	0xbdfd75d1	-0.12375987
185	0x3d474e03	0.048658382
186	0xbdcd8fe3	-0.1003721
187	0xbdb1b66b	-0.086773716
188	0x3dc35f2b	0.09539636
189	0x3d630e14	0.055433348
190	0x3d24cc34	0.040233806
191	0xbd5e3305	-0.054247875
192	0x3e012f5d	0.12615724
193	0xbcd36df3	-0.025809264
194	0xbe36c894	-0.17849952
195	0x3c3031ea	0.010754088
196	0xbd292314	-0.04129322
197	0x3d361103	0.044449817
198	0x3e4e4690	0.20144105
199	0xbd3e0d08	-0.046399146
200	0x3d8891db	0.06668445
201	0x3d12b59c	0.035817727
202	0x3dc2c70c	0.095106214
203	0xbda1d8fc	-0.079027146
204	0xbe1f5bd9	-0.15562381
205	0xbe3a93b3	-0.18220405
206	0xbe24cd24	-0.1609388
207	0x3dec0851	0.11525024
208	0xbde05c84	-0.10955146
209	0xbe2fa424	-0.17152458
210	0x3b3d4da1	0.0028885382
211	0xbb934d64	-0.0044953097
212	0xbd0b9744	-0.034079805
213	0x3c221d2d	0.009894651
214	0xbe328c0f	-0.1743624
215	0xbdacc869	-0.08436663
216	0xbd5f8995	-0.054574568
217	0xbe354e8f	-0.17705749
218	0xbb9ab4ff	-0.0047212834
219	0xbd9794a4	-0.07401398
220	0x3d9a8167	0.07544213
221	0xbc0c1202	-0.008549215
222	0x3d3b965f	0.045797702
223	0xbd9ed32b	-0.07755121
224	0x3db56eeb	0.088590465
225	0xbd72c2e4	-0.059267893
226	0x3bc4a3a9	0.006000955
227	0x3d1cd6f7	0.038290944
228	0xbd801e80	-0.062558174
229	0xbe5086b3	-0.20363884
230	0x3ddd212e	0.10797344
231	0xbcf71858	-0.030162975
232	0xbda4f236	-0.080540106
233	0xbe513771	-0.20431305
234	0xbd47a6e9	-0.048743162
235	0x3cad6035	0.02116404
236	0x3dc556f0	0.09635723
237	0xbdf04e10	-0.11733639
238	0xbdff448f	-0.124642484
239	0x3e2afac3	0.1669722
240	0x3d524fd3	0.051345658
241	0x3d0e3dd1	0.03472692
242	0xbdd268d8	-0.102739036
243	0xbcf79c97	-0.030226035
244	0xbded4a15	-0.11586396
245	0xbcb8607b	-0.022506943
246	0xbdf6e3db	-0.12055179
247	0xbd8027e3	-0.06257608
248	0xbe0784cd	-0.13234253
249	0xbd6532a4	-0.055956498
250	0xbd835d4d	-0.0641428
251	0xbd230a4f	-0.039804753
252	0x3ccaa78c	0.024738096
253	0x3df76f6a	0.120817974
254	0x3d77e06a	0.060516752
255	0x3dd044bc	0.1016936

weight f4 [256, 512]
0	0xbd967db9	-0.073481984
1	0x3dcc257c	0.09968087
2	0x3dd14b27	0.10219412
3	0x3d41dd78	0.04733035
4	0xbc83efd4	-0.01610557
5	0x3d2bdb25	0.04195704
6	0xbd277ca6	-0.04089036
7	0x3db02294	0.08600345
8	0x3cc714bd	0.024301881
9	0x3ccb0502	0.024782661
10	0x3da7c5a7	0.08191996
11	0xbce7fab9	-0.028317796
12	0xbc5703ba	-0.013123447
13	0x3d94f049	0.07272393
14	0x3db28304	0.087163955
15	0x3d4162b7	0.047213282
16	0x3e1f26af	0.155421
17	0xbbfad1c3	-0.0076544
18	0xbd01ce9e	-0.031691186
19	0xbd96ab07	-0.073568396
20	0xbdcf2ccd	-0.10115967
21	0xbd23d419	-0.039997194
22	0xbda84dc6	-0.08217959
23	0xbe16e748	-0.14736664
24	0x3e10172b	0.14071338
25	0x3e87e289	0.2654002
26	0xbdc49166	-0.09598045
27	0x3e658b7a	0.22416487
28	0x3dc2e0fb	0.09515568
29	0xbd2e3ca9	-0.04253832
30	0x3d87aea2	0.066251054
31	0xbdca6391	-0.09882272
32	0x3dc16e7f	0.094449036
33	0x3d7767cf	0.060401734
34	0x3c4d131f	0.012516766
35	0x3d2ee3ef	0.042697843
36	0x3d2086ad	0.039190937
37	0x3dbba140	0.09161615
38	0x3dd88eca	0.1057411
39	0x3dd89cb2	0.10576762
40	0xbdb1d530	-0.086832404
41	0xbb09ccf8	-0.0021026712
42	0xbc59fa7b	-0.013304348
43	0x3c6c8c8c	0.014437806
44	0x3dc88fed	0.09793077
45	0x3e46cd4d	0.19414254
46	0x3dd1202d	0.10211215
47	0x3cd574b2	0.026056621
48	0x3cff9a82	0.031201605
49	0xbdbdf861	-0.0927589
50	0x3d547069	0.051865015
51	0x3cd2c495	0.025728503
52	0x3dd9618b	0.10614308
53	0x3ca91d8e	0.020643976
54	0xbe2b9b5b	-0.16758482
55	0xbe049c12	-0.12950161
56	0xbd208813	-0.03919227
57	0x3d563d1d	0.052304376
58	0xbd249f4b	-0.040190976
59	0x3e04eb9b	0.12980501
60	0xbd64aa25	-0.055826325
61	0x3dc3ec8f	0.09566604
62	0x3d549cba	0.05190728
63	0x3cca6f96	0.024711411
64	0x3da2a277	0.07941144
65	0x3cb2b0d2	0.02181283
66	0x3d8736bc	0.06602237
67	0xbd06db66	-0.03292408
68	0x3e9042f9	0.28176096
69	0x3dc1fd00	0.09472084
70	0x3dc17106	0.09445386
71	0xbd5d73a8	-0.054065377
72	0xbd88cdf6	-0.06679909
73	0x3da27185	0.079318084
74	0x3e057b93	0.13035421
75	0x3d54d070	0.051956594
76	0xbbe10700	-0.0068672895
77	0x3cce5b5f	0.025190054
78	0x3d1d0895	0.038338263
79	0x3ddfd856	0.10929935
80	0x3e2debdc	0.16984504
81	0x3b328bce	0.0027243975
82	0x3e3f3d73	0.18675785
83	0x3da03b16	0.0782377
84	0xbc3e6aa9	-0.011622109
85	0x3e662a93	0.22477178
86	0x3dc842ef	0.097783916
87	0x3ded7368	0.115942776
88	0xbdcd6e78	-0.10030836
89	0x3de1a22f	0.11017262
90	0x3e179b68	0.14805377
91	0x3d30a998	0.043130487
92	0xbdfbc1bf	-0.122928135
93	0xbca20929	-0.019779759
94	0x3d041cdf	0.032254096
95	0xbd972af9	-0.07381243
96	0xbdc146db	-0.09437343
97	0xbd3c3509	-0.045949016
98	0xbe051e0d	-0.12999745
99	0xbdf1da6f	-0.11809241
100	0xbceb2d43	-0.028708106
101	0x3e45a4cd	0.19301148
102	0xbe0b2c2a	-0.13591066
103	0x3e366f76	0.17815956
104	0xbd017c2f	-0.03161257
105	0xbdb25553	-0.087076806
106	0x3e031898	0.1280235
107	0x3e52ce1d	0.20586438
108	0x3e46cf07	0.19414912
109	0x3e420c8a	0.18950096
110	0xbd0f0ea9	-0.03492609
111	0x3ddb8ed5	0.107206024
112	0xbb999b9a	-0.0046877386
113	0x3e2a0c01	0.16606142
114	0xbdcf8c21	-0.10134149
115	0x3b8acb78	0.004235681
116	0x3c1554df	0.009114473
117	0x3dd178fc	0.10228154
118	0xbbf67b1f	-0.0075220014
119	0x3e1e257f	0.15443991
120	0x3df50838	0.11964458
121	0xba33833a	-0.00068478624
122	0x3dd7b59e	0.105326876
123	0xbb95b255	-0.004568378
124	0x3d601e1c	0.054716215
125	0xbe0220ee	-0.12707874
126	0xbd1cdd19	-0.038296793
127	0xbe31aa08	-0.17350018
128	0x3de8f3f1	0.11374653
129	0x3e33406c	0.17505044
130	0x3c3f9145	0.01169235
131	0xbd8d5c1d	-0.06902335
132	0xbca322d5	-0.01991407
133	0x3da830b8	0.08212417
134	0x3e6a4dbf	0.2288122
135	0x3e0069cc	0.12540358
136	0xbd97eaf5	-0.07417861
137	0x3e048918	0.12942922
138	0xbc7c17d6	-0.015386542
139	0x3d80bb59	0.06285734
140	0xbd9c1672	-0.076214686
141	0x3d84dfb7	0.06487983
142	0xbd9978bf	-0.074937336
143	0xbb15085d	-0.002274058
144	0x3e097184	0.13422209
145	0x3d30250a	0.043004073
146	0xbd845de7	-0.06463223
147	0xbe3d38c7	-0.1847869
148	0xbd90c372	-0.07068528
149	0x3d901add	0.07036374
150	0xbafc32ed	-0.0019241251
151	0x3ce7e2dd	0.028306419
152	0x3cc6232f	0.024186699
153	0x3d95f348	0.07321793
154	0xbd6e331c	-0.05815421
155	0x3e23c051	0.15991332
156	0x3cd35e26	0.02580173
157	0x3da575c3	0.08079102
158	0x3d2acb08	0.041697532
159	0xbd7dcce0	-0.061962962
160	0x3e47bd42	0.1950579
161	0xbe263558	-0.16231287
162	0x3d28b157	0.04118475
163	0x3d0f9a42	0.03505922
164	0xbe0e15bd	-0.1387548
165	0x3de5869f	0.112073176
166	0x3cc3bfce	0.02389517
167	0xbd511f20	-0.051055074
168	0x3d408d70	0.047009885
169	0x3e028355	0.12745412
170	0xbd5fcc35	-0.054638106
171	0x3eb160a7	0.34644052
172	0xbd7910d5	-0.060807068
173	0xbcb334cf	-0.021875767
174	0xbd59b013	-0.053146433
175	0x3d61391f	0.054986116
176	0xbdb13293	-0.086522244
177	0xbdb4ee89	-0.088345595
178	0x3c80d3ac	0.015725933
179	0x3dd4d5fd	0.103923775
180	0x3d107d99	0.03527603
181	0x3d09bf3d	0.033629645
182	0xbe068ab2	-0.13138846
183	0x3e5d4609	0.21608748
184	0x3dd07f72	0.10180558
185	0x3e2344d0	0.15944219
186	0xbe05c243	-0.13062386
187	0x3c8e0cb3	0.01734004
188	0xbd69f72d	-0.05712049
189	0x3d000f9e	0.031264894
190	0xbdbeac8f	-0.09310257
191	0xbd7b75bd	-0.06139158
192	0x3e29aae0	0.1656909
193	0x3d79fab6	0.061030112
194	0x3df21afa	0.118215516
195	0x3e705571	0.23470093
196	0xbcabf556	-0.020991009
197	0x3e0ec154	0.13940936
198	0x3d573846	0.0525439
199	0xbe04c934	-0.12967378
200	0x3d2b4d80	0.041821957
201	0xbd3e408b	-0.04644827
202	0x3e2771e7	0.16352044
203	0x3d4e4c98	0.050366014
204	0xb9af1f80	-0.0003340207
205	0x3d49e325	0.049288888
206	0x3df8a8a4	0.12141541
207	0xbdd0a4cd	-0.10187683
208	0x3ce4da62	0.027936164
209	0xbd337d52	-0.043820687
210	0xbcba0cdd	-0.022711212
211	0xbd84b065	-0.06478957
212	0x3c1b7900	0.009489298
213	0x3dc7714e	0.09738408
214	0xbd9dd224	-0.07706097
215	0x3ca8cd46	0.020605695
216	0x3e245188	0.16046727
217	0x3e16c534	0.14723665
218	0x3d7be9a5	0.061502118
219	0xbd02d68b	-0.031942885
220	0xbce1985c	-0.02753847
221	0xbcc95306	-0.024575721
222	0x3e35895a	0.17728177
223	0x3d998edb	0.07497951
224	0xbd4d43f8	-0.05011365
225	0x3ce51d8b	0.027968189
226	0xbbdbcfec	-0.006708136
227	0xbc5ec634	-0.01359706
228	0x3dbe1b9a	0.09282608
229	0x3e38cd12	0.18046978
230	0x3c0c8854	0.008577425
231	0xbd21a244	-0.03946139
232	0x3d7a50ef	0.06111234
233	0x3e4a99d0	0.19785237
234	0xbc911e68	-0.017714694
235	0x3e02b3f9	0.12763967
236	0x3da4d803	0.080490135
237	0x3d6339c1	0.055475
238	0xbdfce8fd	-0.123491265
239	0x3d3ac9fd	0.045602787
240	0x3ddfd400	0.10929108
241	0x3e423311	0.18964793
242	0x3d9f0b44	0.077658206
243	0xbdca2b15	-0.098714985
244	0xbd69afad	-0.057052303
245	0x3ce26221	0.027634682
246	0x3b4cb9b1	0.003123861
247	0xbcf207ba	-0.0295447
248	0xbd63e438	-0.05563757
249	0xbcb24d24	-0.0217653
250	0x3dcc1170	0.099642634
251	0x3dcaf983	0.09910872
252	0x3da836bc	0.08213565
253	0xbd682f25	-0.056685586
254	0x3e4232b3	0.18964653
255	0xbdb0c128	-0.08630592

bias f4 [256]
0	0xbdec3861	-0.11534191
1	0xbd7abab4	-0.06121321
2	0xbd201177	-0.039079156
3	0xbdbc1a9e	-0.09184764
4	0xbdac7dd8	-0.0842244
5	0xbd1b3678	-0.037893742
6	0xbd501076	-0.05079695
7	0xbd8f9d56	-0.07012431
8	0xbcdc7fe1	-0.026916446
9	0xbdb5f778	-0.088850915
10	0xbd796c7f	-0.060894486
11	0x3bd2bb73	0.006431037
12	0xbc612ac0	-0.013743103
13	0xbcc044bd	-0.023470277
14	0xbdeb6f54	-0.114958435
15	0x3d84df33	0.06487884
16	0xbda4fe50	-0.08056319
17	0x3cf823b2	0.030290458
18	0xbd88335b	-0.0665042
19	0xbbd58103	-0.0065156235
20	0xbd4cca00	-0.04999733
21	0xbd698483	-0.05701114
22	0xbd558cb1	-0.052136127
23	0xbd047856	-0.032341324
24	0xbdb48f18	-0.088163555
25	0xbe3702c1	-0.17872144
26	0xbe0d08b2	-0.13772848
27	0xbd1e0569	-0.03857938
28	0xbd05c004	-0.032653823
29	0xbd8c1a91	-0.06841005
30	0xbdfc5cdb	-0.12322398
31	0xbd771b5c	-0.060328826
32	0x3cb66ae3	0.022267764
33	0xbc24791f	-0.010038643
34	0xbe08c089	-0.13354696
35	0xbdc22378	-0.094794214
36	0xbdba0536	-0.09083025
37	0xbdeb254a	-0.11481722
38	0xbdd35470	-0.103188396
39	0xbd8dcb43	-0.06923535
40	0xbe04c9db	-0.12967627
41	0xbe0948ab	-0.13406627
42	0xbdc6721f	-0.096897356
43	0xbdfb9916	-0.12285058
44	0xbdd0fb89	-0.102042265
45	0xbd855b45	-0.06511549
46	0xbdef0f6d	-0.11672864
47	0xbdb5a395	-0.088690914
48	0x3ca56032	0.020187471
49	0xbd7ab66e	-0.061209135
50	0xbe33ef08	-0.17571652
51	0xbe750bbd	-0.23930259
52	0x3c951bda	0.018201757
53	0x3c3745c9	0.011186072
54	0xbcadd5fb	-0.021220198
55	0xbda2adb7	-0.0794329
56	0x3d68ad72	0.056806035
57	0xbe195b48	-0.14976227
58	0xbdace3ad	-0.08441863
59	0xbd740d49	-0.059582982
60	0xbdbde008	-0.09271246
61	0xbda9f259	-0.08298177
62	0xbd056a8e	-0.03257232
63	0xbd670c02	-0.056407936
64	0xbda657c5	-0.081222095
65	0xbe09f9b5	-0.13474162
66	0xbe0d757b	-0.13814346
67	0xbd6fd491	-0.05855233
68	0x3b3626c6	0.0027794107
69	0xbd6fa846	-0.058510087
70	0xbd38fc88	-0.045162708
71	0x3c85685f	0.01628512
72	0xbdf20161	-0.11816669
73	0xbca21da4	-0.019789524
74	0xbda5f5af	-0.08103501
75	0x3c85d533	0.016337013
76	0xbd4d675e	-0.050147407
77	0xbd345de0	-0.04403484
78	0xbdeeb289	-0.11655147
79	0xbe63d7d9	-0.22250308
80	0xbdcf0f50	-0.101103425
81	0xbd1de690	-0.03854996
82	0xbd5fd9dd	-0.05465113
83	0xbdd7d121	-0.10537935
84	0xbdc94dd4	-0.09829298
85	0xbd8730c3	-0.066010974
86	0xbdadcc88	-0.08486277
87	0xbde116c5	-0.10990671
88	0xbdda3163	-0.10653951
89	0xbd02dfde	-0.031951778
90	0xbd68ba52	-0.056818314
91	0xbcd972b4	-0.026543953
92	0x3cbd32c1	0.02309549
93	0xbd9a7100	-0.07541084
94	0xbdcc8925	-0.09987096
95	0xbd80be97	-0.06286352
96	0xbde69043	-0.112579845
97	0xbcc863a5	-0.024461577
98	0xbc33d206	-0.010975366
99	0xbd3b9aec	-0.045802042
100	0xbd6e51e5	-0.05818357
101	0xbd14f5ea	-0.036367334
102	0xbdcd2756	-0.10017268
103	0xbddd06ff	-0.1079235
104	0x3c3ddd22	0.011588367
105	0xbdf8b725	-0.12144307
106	0xbdce4a72	-0.10072793
107	0xbe0cf109	-0.13763823
108	0xbcdc9455	-0.026926199
109	0xbdaefffd	-0.0854492
110	0xbb665c8a	-0.0035150372
111	0xbd870604	-0.06592944
112	0xbd3fdb28	-0.046839863
113	0xbcc19e17	-0.023634953
114	0xbd905c03	-0.070488
115	0xbde618e4	-0.11235216
116	0xbd1c95bd	-0.03822874
117	0xbdb11220	-0.08646035
118	0x3cc731ff	0.024315832
119	0xbd06cca2	-0.032909997
120	0xbd11d2f6	-0.03560158
121	0xbe621340	-0.22077656
122	0xbdb8ee0a	-0.09029777
123	0xbdccb2d0	-0.09995043
124	0xbe320fa6	-0.17388782
125	0xbda9d01c	-0.08291647
126	0xbdb1c344	-0.08679822
127	0xbe361fb2	-0.17785528
128	0xbbf46931	-0.007458829
129	0xbd945082	-0.07241918
130	0xbd7d1a7e	-0.061792843
131	0xbd2aa82d	-0.04166429
132	0xbe2fb9e8	-0.17160761
133	0xbd31c7d2	-0.043403454
134	0xbe1da473	-0.15394764
135	0x3ac9bb69	0.0015390936
136	0xbe18edda	-0.14934483
137	0xbe03a0b1	-0.12854268
138	0xbdc3631a	-0.095403865
139	0xbd98988c	-0.07450971
140	0xbca68dcb	-0.020331284
141	0xbd806a5b	-0.06270286
142	0xbdbd3aa5	-0.09239701
143	0x3c178fba	0.009250576
144	0xbd8635a8	-0.06553203
145	0xbe160183	-0.14649014
146	0xbda89227	-0.08231001
147	0x3c49684a	0.012292931
148	0xbdefa23b	-0.11700865
149	0xbd013018	-0.031540006
150	0xbda64c5c	-0.08120033
151	0xbdec7031	-0.11544836
152	0xbdab1455	-0.083534874
153	0xbd87bc01	-0.06627656
154	0xbd9ccea7	-0.07656603
155	0xbc630cb7	-0.013858012
156	0xbcf59c2c	-0.029981695
157	0xbdaa785a	-0.083237365
158	0xbd878c28	-0.066185296
159	0x3caf4c4c	0.021398686
160	0xbdbb968c	-0.09159574
161	0x3cc5b1e7	0.024132682
162	0xbd1d8324	-0.038455144
163	0xbdc31efb	-0.095273934
164	0xbdf30142	-0.11865474
165	0xbd9d1d92	-0.07671656
166	0xbd5ae7ec	-0.053443834
167	0x3c5874aa	0.013211409
168	0x3c4d0d3d	0.012515363
169	0xbda1d670	-0.07902229
170	0xbd47dfca	-0.048797406
171	0x3cdae1a4	0.026718922
172	0x3bae241c	0.005314363
173	0x3c97211d	0.018448407
174	0xbde7e4de	-0.1132295
175	0xbdc808a7	-0.09767275
176	0xbda15d76	-0.078791544
177	0xbda79106	-0.08181958
178	0xbe68bae7	-0.22727548
179	0xbd1d29a8	-0.038369805
180	0xbdb67f58	-0.08911008
181	0xbd3b1ca8	-0.045681626
182	0xbd87204d	-0.06597958
183	0xbdc6e04c	-0.0971075
184	0xbc438db0	-0.011935636
185	0xbd8273b1	-0.06369723
186	0xbda15eab	-0.078793846
187	0x3b27df4c	0.0025615273
188	0xbdfcb770	-0.123396754
189	0xbc3bc9ef	-0.011461719
190	0xbd949f2d	-0.07256923
191	0xbdb425c4	-0.08796266
192	0xbd8d8b95	-0.06911389
193	0xbdd44f38	-0.10366672
194	0x3a1a7e97	0.0005893497
195	0xbda12fbd	-0.078704335
196	0xbe084ff4	-0.1331175
197	0xbdfea11e	-0.124330744
198	0xbda96620	-0.08271432
199	0xbdf67e0a	-0.12035759
200	0xbc09f682	-0.008420588
201	0xbd3d5d17	-0.046231356
202	0xbcc53f58	-0.024078056
203	0x3c917183	0.017754322
204	0xbdc82862	-0.097733274
205	0xbdb39976	-0.08769505
206	0xbd45e3b8	-0.048312873
207	0xbc3f602e	-0.011680646
208	0xbe0ef4d5	-0.13960584
209	0xbda4e790	-0.080519795
210	0xbd91c983	-0.071185134
211	0x3d0e96d8	0.034811825
212	0x3ce052e9	0.027383285
213	0x39866bcf	0.00025638795
214	0xbe0ca4c3	-0.13734727
215	0xbe0e2f2e	-0.13885185
216	0xbdf19859	-0.11796636
217	0xbdf929fe	-0.121662125
218	0x39462551	0.00018896653
219	0xbe101c07	-0.14073192
220	0xbd9410b2	-0.07229747
221	0xbde2036e	-0.110358104
222	0xbdb062fa	-0.08612628
223	0xbd11db58	-0.035609573
224	0xbd97da43	-0.07414677
225	0xbd95840b	-0.07300576
226	0xbd085907	-0.033288028
227	0xbcb4f510	-0.022089511
228	0xbc4b6f76	-0.012416711
229	0xbd9f97bf	-0.07792615
230	0xbd2b4a44	-0.041818872
231	0xbbb10e54	-0.0054033194
232	0xbcc09f9d	-0.02351361
233	0xbd84271f	-0.06452774
234	0xbd06e465	-0.032932658
235	0xbdcb15d6	-0.09916274
236	0xbd401179	-0.046891663
237	0xbda0ae06	-0.07845692
238	0x37e6f977	2.7534303e-05
239	0xbdec37dd	-0.115340926
240	0xbba84648	-0.0051353313
241	0xbca6c8f3	-0.020359492
242	0xbe1c5163	-0.15265422
243	0xbe39dcb9	-0.18150605
244	0xbe10c7cf	-0.14138721
245	0xbd6bfe61	-0.05761564
246	0xbbf5fcaa	-0.0075069265
247	0xbd66b786	-0.056327365
248	0xbdc1e8e5	-0.09468249
249	0xbcc2f7c1	-0.023799779
250	0xbe109b5b	-0.14121763
251	0xbc9b68bb	-0.018970838
252	0xbd541fdf	-0.051788207
253	0xbd067e0a	-0.032835044
254	0x3b4154e3	0.002950006
255	0xbda4a0a3	-0.080384515

weight f4 [128, 256]
0	0xbca22ad9	-0.019795822
1	0x3bb3021b	0.0054628975
2	0xbcca25c0	-0.024676204
3	0xbc63829d	-0.013886121
4	0xbdb35036	-0.087555334
5	0x3d433602	0.047658928
6	0x3d1eb570	0.03874725
7	0xbca896b1	-0.020579668
8	0xbd6143c7	-0.054996278
9	0x3d88ac34	0.0667347
10	0x3d82b78d	0.06382666
11	0xbc9900db	-0.018677166
12	0xbc5c9ff4	-0.01346587
13	0xbd727174	-0.05919023
14	0x3b45d46b	0.0030186425
15	0xbd732a31	-0.05936641
16	0x3d101fd4	0.035186604
17	0xbdb91fbd	-0.09039257
18	0xbcd74ee2	-0.026282731
19	0xbdb1738a	-0.086646155
20	0x3d6dea3e	0.05808472
21	0xbca34ecb	-0.019935032
22	0xbc367cf3	-0.011138189
23	0xbc78f3a6	-0.015194809
24	0xbd316243	-0.0433066
25	0xbd695436	-0.056965075
26	0xbd6b73f9	-0.057483647
27	0x3d4fcbfe	0.05073165
28	0xbd6df780	-0.058097363
29	0x3c8afb4c	0.01696553
30	0x39046436	0.00012625832
31	0x3ddc369e	0.10752605
32	0xbc1ada45	-0.009451454
33	0xbca96214	-0.02067665
34	0xbcbc94ee	-0.023020234
35	0x3d065986	0.03280022
36	0x3db92221	0.09039713
37	0x3e01bc72	0.12669542
38	0xbcdf30e9	-0.027245002
39	0xbc5298fb	-0.012853856
40	0x3d90ac4e	0.070641145
41	0x3d340c70	0.043957174
42	0x3dbe6351	0.09296287
43	0x3d45defd	0.04830836
44	0x3d4a194b	0.049340528
45	0x3d72cf37	0.059279647
46	0xbd59ff44	-0.053221956
47	0xbcca1e1f	-0.024672566
48	0xbda4bb33	-0.08043518
49	0xbdc95da1	-0.098323114
50	0xbd034dfd	-0.032056797
51	0x3e2107ea	0.15725675
52	0xbdcf083c	-0.101089925
53	0x3d50a96a	0.050942816
54	0x3d75f8ef	0.060051855
55	0x3dcb3c0d	0.09923563
56	0x3d11ecc4	0.035626188
57	0x3d9dd762	0.07707097
58	0x3d205bc8	0.03915003
59	0x3d73816c	0.0594496
60	0x3d5d0085	0.053955574
61	0x3b35e028	0.0027752016
62	0xbd0491f2	-0.032365747
63	0xbcf114ce	-0.029428866
64	0xbd46afe4	-0.048507586
65	0x3d89b573	0.06724062
66	0x3dbc4c8f	0.0919429
67	0xbe24ca91	-0.16092898
68	0x3ce8178a	0.028331537
69	0x3d2c233a	0.042025782
70	0x3bc4051b	0.005982054
71	0x3d782573	0.06058259
72	0x3ccded3f	0.025137542
73	0x3d5bfc06	0.053707145
74	0x3d220653	0.039556812
75	0xbb3fb188	-0.0029250104
76	0xbd3b9b92	-0.04580266
77	0xbd1e5338	-0.038653582
78	0x3d8fe412	0.07025923
79	0xbd815ab2	-0.06316127
80	0x3d5744a5	0.0525557
81	0xbdb56811	-0.0885774
82	0xbb5042f8	-0.0031778198
83	0xbcc9635b	-0.02458351
84	0x3cf0e21c	0.029404692
85	0x39dc3ddf	0.00042007767
86	0x3d12e153	0.035859417
87	0xbdcea00a	-0.10089119
88	0xbd8b1597	-0.06791227
89	0x3aae2e6e	0.0013288984
90	0xbd3d67f8	-0.04624173
91	0xbbbc7ce1	-0.0057521914
92	0x38f829e6	0.00011833366
93	0x3d339aa1	0.043848637
94	0x3d3135a0	0.04326403
95	0xbd9bafe5	-0.076019086
96	0xbda707b5	-0.08155767
97	0x3b3078d9	0.00269275
98	0xbd6116d7	-0.054953422
99	0x3d1358df	0.035973426
100	0x3de686bb	0.112561665
101	0x3bb9e69d	0.005673243
102	0x3b9137ae	0.0044316864
103	0xbd113aa0	-0.0354563
104	0x3dd8685a	0.105667785
105	0xbdc1863d	-0.09449432
106	0xbb84556b	-0.004038503
107	0xbbebf8e4	-0.007201301
108	0xbcc2d322	-0.023782317
109	0xbcaf353f	-0.021387694
110	0xbd1c63c8	-0.038181096
111	0x3c9535bf	0.018214105
112	0x3e051a97	0.12998424
113	0xbd37488d	-0.044746924
114	0x3d584239	0.05279753
115	0x3da91b9d	0.0825722
116	0x3d67281e	0.056434743
117	0x3b462463	0.003023409
118	0xbdd35060	-0.10318065
119	0x3c921ccd	0.017835999
120	0xbd2ea62e	-0.04263895
121	0xbd35011d	-0.044190515
122	0xbd87616a	-0.06610377
123	0x3cb4d853	0.022075808
124	0x3d3f1736	0.046652995
125	0xbd6ec2f5	-0.058291394
126	0x3d197db0	0.03747338
127	0xbcc3f3bc	-0.023919933
128	0xbc4651da	-0.012104476
129	0xbe068705	-0.13137443
130	0xbc64264e	-0.013925148
131	0x3d93c3ee	0.07215105
132	0xbd9de9a1	-0.07710577
133	0xbd8986e9	-0.06715185
134	0x3dbcd118	0.09219569
135	0x3d3e3c98	0.046444505
136	0x3c2ad350	0.010426357
137	0x3dcc0e43	0.09963658
138	0x3d4e8588	0.050420314
139	0xbd5b1f8d	-0.053496886
140	0x3c451511	0.012028948
141	0xbcd0ea03	-0.02550221
142	0x3d72663a	0.059179522
143	0x3ae2fd15	0.0017317856
144	0xbdc37671	-0.09544075
145	0x3d949b36	0.07256167
146	0x3dbdc6f0	0.0926646
147	0xbc6f7440	-0.0146151185
148	0x3d8b804c	0.0681158
149	0x3d0fc97a	0.035104252
150	0x3da19378	0.078894556
151	0x3df442cb	0.11926802
152	0xbd4a4179	-0.049378846
153	0x3cd7cab5	0.026341775
154	0x3d383013	0.044967722
155	0xbdd39c87	-0.103325896
156	0x3d62e7cd	0.055396844
157	0x3d267e86	0.040648006
158	0xbd1908a3	-0.037361752
159	0x3c5dbc63	0.013533684
160	0xbd0186ef	-0.031622823
161	0xbda6c551	-0.08143104
162	0xbd814e07	-0.06313711
163	0xbcb57631	-0.022151085
164	0x3e2c3413	0.1681674
165	0x3d9142aa	0.07092793
166	0x3b9b3047	0.0047359797
167	0x3d05aabd	0.03263353
168	0xbd12f8a1	-0.035881642
169	0xbcbcab0e	-0.023030784
170	0xbc181f9b	-0.009284879
171	0xbdc436cf	-0.095807664
172	0x3cf4c186	0.029877435
173	0xbcaf65a7	-0.021410776
174	0x3d7594b2	0.05995626
175	0x3d70730f	0.05870348
176	0xbdb18e52	-0.086697236
177	0xbdd72f87	-0.10507112
178	0x3de103e0	0.10987067
179	0x3d938d5d	0.07204697
180	0x3d27d3fe	0.040973656
181	0xbd22df6c	-0.039763853
182	0x3df7e9f9	0.121051736
183	0xbdbd48c0	-0.092423916
184	0xbd41f0b4	-0.047348693
185	0x3d4ba110	0.049714148
186	0xbd04a344	-0.032382265
187	0x3d460eb7	0.048353877
188	0x3d2bbb58	0.04192671
189	0x3c12b80b	0.008955012
190	0xbc60bc4f	-0.013716771
191	0xbcba241c	-0.022722296
192	0x3d97b5b4	0.07407704
193	0xbd895150	-0.06704962
194	0x3c5bfa1b	0.013426329
195	0x3d8a28c4	0.06746057
196	0x3c08e154	0.008354504
197	0xbcc020b4	-0.023453094
198	0x3d813444	0.06308797
199	0x3d70b2a2	0.058764108
200	0xbd2c4eba	-0.042067267
201	0x3c973cc1	0.018461587
202	0x3c8316b7	0.016002042
203	0x3b1bff88	0.0023803432
204	0xbd8e2b18	-0.06941813
205	0xbd2ce22c	-0.04220788
206	0xbcc04e5b	-0.023474863
207	0x3cd2bce5	0.025724838
208	0xbd026f9e	-0.031844728
209	0x3c88530c	0.016641162
210	0x3dbfb423	0.0936053
211	0xbd4d0804	-0.050056472
212	0xbe2714ba	-0.163165
213	0x3ca24f92	0.019813333
214	0xbd311917	-0.04323682
215	0x3d8b5127	0.06802588
216	0x3de44894	0.11146656
217	0xbc46ce41	-0.012134136
218	0x39fe3646	0.00048487092
219	0x3d24f510	0.040272772
220	0xbd2881d9	-0.041139457
221	0x3e18dafa	0.14927283
222	0x3da0c1b2	0.078494444
223	0x3b538fee	0.0032281834
224	0x3d578972	0.052621312
225	0xbd429362	-0.047503836
226	0x3c6e5e6a	0.014548877
227	0xbcad5e79	-0.021163212
228	0x3cf448e3	0.029819911
229	0x3d82f128	0.06393653
230	0x3e0ff5ae	0.14058563
231	0xbd45a1d8	-0.04825005
232	0xbd79fdd7	-0.061033096
233	0x3c983bec	0.01858326
234	0xbdda22cf	-0.106511705
235	0x3c9f836c	0.019471847
236	0xbc237e52	-0.009978848
237	0xbe09ebea	-0.134689
238	0xbd93f5b2	-0.07224597
239	0x3d469384	0.048480526
240	0xbd74dbbb	-0.059779864
241	0x3db4b928	0.08824378
242	0xbd46a655	-0.04849847
243	0x3d5fa44d	0.05460005
244	0xbdd3ff42	-0.10351421
245	0xbceacbfb	-0.028661719
246	0x3a258195	0.000631356
247	0xbd9f2a97	-0.07771795
248	0x3ddf3404	0.10898593
249	0xbd6e2dda	-0.058149196
250	0x3bc47ed6	0.0059965653
251	0xbcffdfa7	-0.031234575
252	0xbca0e8d1	-0.019642266
253	0x3dc2dc33	0.09514656
254	0xbc0186f8	-0.007905714
255	0xbce39ec7	-0.027785672

bias f4 [128]
0	0xbd092b1a	-0.03348837
1	0xbdf26625	-0.11835889
2	0xbd96f63e	-0.07371186
3	0xbd713082	-0.05888415
4	0xbd18b8c9	-0.0372856
5	0xbdcae9b0	-0.099078536
6	0xbca6676c	-0.020312987
7	0x3dccf510	0.100076795
8	0xbcb37399	-0.021905707
9	0xbbb9c9f4	-0.0056698266
10	0x3ca15108	0.019691959
11	0xbd471211	-0.048601214
12	0xbde225c0	-0.110423565
13	0xbde0b19f	-0.109713785
14	0xbb458ab9	-0.00301425
15	0xbc6fd2b3	-0.014637637
16	0xbe4aeb22	-0.19816259
17	0xbd0a83d5	-0.03381713
18	0xbe01fe61	-0.12694694
19	0x3c83dfdd	0.016097957
20	0x3be6d5c9	0.007044528
21	0xbd23c7aa	-0.039985336
22	0x391608b1	0.00014308353
23	0xbe0c52aa	-0.13703409
24	0xbae6f0f8	-0.0017619422
25	0xbd8e5a3d	-0.06950805
26	0xbc7715de	-0.015080897
27	0xbcce705c	-0.025200062
28	0xbdcdd5e1	-0.1005056
29	0x3c8f6d6c	0.017508231
30	0xbd501e01	-0.050809864
31	0xbdaa11f0	-0.083042026
32	0xbd11ba91	-0.035578314
33	0xbd8ff674	-0.07029429
34	0xbd0f0cc7	-0.034924295
35	0xbd5f3a67	-0.054499056
36	0xbd983bc5	-0.07433275
37	0xbdb6d3e8	-0.08927137
38	0xbd5dbda2	-0.054135926
39	0xbe1d8fb7	-0.15386854
40	0x3c29e0e3	0.010368559
41	0xbd17d291	-0.037066046
42	0x3d49fdc2	0.049314268
43	0xbdd9b9ff	-0.10631179
44	0xbd39afae	-0.045333557
45	0xbd262aed	-0.04056828
46	0xbda2b679	-0.0794496
47	0xbd3d2ebb	-0.046187144
48	0xbe2871f1	-0.16449715
49	0xbd662ae0	-0.056193233
50	0xbdaa81c5	-0.08325533
51	0xbcdb28ec	-0.026752912
52	0xbd292a4e	-0.04130011
53	0xbc35472c	-0.011064332
54	0xbdc971df	-0.09836172
55	0xbe04f39e	-0.12983558
56	0xbb49599d	-0.003072358
57	0xbd318cc5	-0.04334714
58	0xbde74b97	-0.112937145
59	0xbd80a95f	-0.06282305
60	0xbd934ad1	-0.071920045
61	0xbce17d10	-0.027525455
62	0xbd901e29	-0.070370026
63	0xbd7e54e6	-0.062092684
64	0xbde234a0	-0.11045194
65	0xbd81bedb	-0.06335231
66	0xbd320a74	-0.043467
67	0xbd13c5aa	-0.03607718
68	0xbc5967ef	-0.013269409
69	0xbdae003a	-0.08496137
70	0x3c9801a7	0.018555475
71	0xbe346576	-0.1761683
72	0xbd633e94	-0.0554796
73	0xbb9e6222	-0.0048334757
74	0xbdc7998e	-0.09746085
75	0xbd36b637	-0.044607367
76	0xbcc9aed3	-0.024619495
77	0xbc1edeaa	-0.009696642
78	0xbd96ac0b	-0.07357033
79	0xbdc95fe1	-0.098327406
80	0xbde2fb80	-0.11083126
81	0xbd4965df	-0.049169417
82	0x3cd868e5	0.026417205
83	0xbd68db75	-0.056849916
84	0xbe1392b9	-0.14411439
85	0xbe315932	-0.17319182
86	0xbdd975bd	-0.1061816
87	0xbd13aba4	-0.03605236
88	0xbc112615	-0.008859177
89	0xbcc4fe0c	-0.02404692
90	0xbd462b52	-0.048381157
91	0x3a919321	0.001110647
92	0xbcbf9fd7	-0.023391647
93	0x3cb6f1e0	0.022332132
94	0xbe2e573c	-0.17025465
95	0x3d87e391	0.06635202
96	0xbd193708	-0.037405998
97	0xbde8d14b	-0.113680445
98	0xbcc278c3	-0.023739224
99	0xbdf22e37	-0.11825221
100	0xbcda95d6	-0.026682775
101	0x3d315a77	0.043299165
102	0xbcc1308c	-0.02358272
103	0x3ba37ad6	0.0049890084
104	0xbd54f273	-0.05198903
105	0xbd8c5b35	-0.06853334
106	0x3ac6c359	0.0015164419
107	0x3be0f4be	0.006865113
108	0x3c8f34c2	0.017481212
109	0xbcd36070	-0.02580282
110	0xbc93cfd2	-0.018043432
111	0xbc5bc750	-0.013414219
112	0xbd23175f	-0.03981721
113	0xbd5d239c	-0.053989038
114	0xbd54e14f	-0.051972684
115	0xbc9b20a7	-0.018936468
116	0xbdb73c20	-0.08947015
117	0x3bed0c84	0.007234158
118	0xbd5a5712	-0.053305693
119	0xbd3c016a	-0.045899786
120	0x3cdd4271	0.02700922
121	0xbde540ab	-0.11193975
122	0xbd1d0677	-0.038336243
123	0x3b5b66f3	0.003347811
124	0xbda7cacb	-0.081929766
125	0xbda6b1d0	-0.08139384
126	0xbcd809ff	-0.026371954
127	0xbdd0c858	-0.101944625

weight f4 [12, 128]
0	0x3d36de1e	0.04464542
1	0x3c56a474	0.013100732
2	0x3b1af42a	0.0023644068
3	0x3a08e65f	0.0005222316
4	0xbca5ca90	-0.02023819
5	0x3da6bcb1	0.08141459
6	0xbc43083a	-0.011903817
7	0xbd0eb559	-0.034840915
8	0xbcc3b549	-0.023890154
9	0x3a376d4e	0.00069971837
10	0xbdb38b81	-0.08766843
11	0x3e025911	0.12729289
12	0x3d73e690	0.059546053
13	0xbbc06134	-0.0058709625
14	0xbc69c94a	-0.014269182
15	0x3ca86f51	0.020560892
16	0x3c9c6dfb	0.019095412
17	0xbd62a180	-0.0553298
18	0x3d1e5d2f	0.038663086
19	0xbd022b02	-0.031779297
20	0xbc46a291	-0.01212372
21	0x3d0bc1e2	0.034120448
22	0x3bfc496d	0.0076991827
23	0x3d8bf565	0.06833915
24	0x3ccd2b60	0.025045097
25	0xbd5ba176	-0.053620778
26	0xbc5f5bf6	-0.013632765
27	0x3d1cb5f5	0.038259465
28	0x3c83ac6e	0.016073432
29	0x3cf81659	0.030284094
30	0xbd0d6e9d	-0.034529317
31	0x3c440542	0.011964144
32	0xbd1a0da2	-0.037610658
33	0xbb91c16f	-0.004448108
34	0xbb47a04b	-0.0030460532
35	0x3c9148de	0.017734941
36	0x3cb592fc	0.022164814
37	0x3ca1c501	0.01974726
38	0xbcf7ee90	-0.030265123
39	0x3d32a196	0.04361113
40	0x3c84133e	0.016122457
41	0xbb85271d	-0.0040635006
42	0x3de40c4b	0.11135157
43	0xbd4c5171	-0.049882356
44	0xbd4bf048	-0.049789697
45	0x3b841e6d	0.0040319473
46	0x399b2ee2	0.00029598834
47	0x3d39d446	0.045368455
48	0xbdaf2cbf	-0.085534565
49	0xbc51a21f	-0.012795
50	0x3aa6a409	0.0012713681
51	0xbcfa450d	-0.030550504
52	0xbd33091b	-0.043709856
53	0x3c611c86	0.013739711
54	0x3d6da9c1	0.058023218
55	0xbd5c1b45	-0.053736944
56	0xbc78a446	-0.015175885
57	0x3cde80ed	0.027161086
58	0x3d4ec170	0.050477445
59	0xbcd82622	-0.02638537
60	0xbb4f025b	-0.0031587097
61	0x3d6b239b	0.057407003
62	0x3cce356a	0.025171954
63	0x3c84857d	0.016176933
64	0xbcf5737b	-0.029962292
65	0xbbe49251	-0.00697545
66	0x3de42f6f	0.1114186
67	0x3cacbce3	0.021086162
68	0xbaabb552	-0.0013100302
69	0x3c8a4943	0.016880637
70	0x3d33aea0	0.043867707
71	0xbd220b6e	-0.03956168
72	0x3cdc9372	0.026925776
73	0xbd0c2843	-0.034218084
74	0x3d60d682	0.05489207
75	0xbd517d44	-0.051144853
76	0x3c7aea63	0.015314671
77	0xbdf1a55f	-0.1179912
78	0xbb58bb4b	-0.003307062
79	0xbc083ab6	-0.008314779
80	0xbbe8aa32	-0.007100367
81	0xbcc64822	-0.024204317
82	0x3d6df37e	0.05809354
83	0x3cfcd3d8	0.030862734
84	0xbe0be71e	-0.13662383
85	0xbd516152	-0.051118203
86	0x3c880fdb	0.016609123
87	0xbd21cd8d	-0.03950267
88	0xbd64e1e9	-0.055879507
89	0x3caffb69	0.021482186
90	0x3da02871	0.078202136
91	0xbdad5165	-0.084627904
92	0xbc5a5d0c	-0.013327848
93	0x3c3f4b9f	0.011675744
94	0x3d28bb94	0.041194513
95	0x3ae21194	0.001724767
96	0x3ca8ac74	0.020590045
97	0x3d461d66	0.04836788
98	0x3c97103c	0.018440358
99	0x3caba8ad	0.020954454
100	0xbcde4e5d	-0.027136976
101	0xbd84e6e7	-0.064893536
102	0x3b27d473	0.0025608807
103	0x3b0c580b	0.0021414782
104	0xbb721ab1	-0.003694218
105	0xbd0e360e	-0.03471952
106	0xbd102fb0	-0.03520173
107	0xba9f48a7	-0.0012152389
108	0xbd034ace	-0.03205376
109	0x3d3d2c65	0.046184916
110	0xbd09491a	-0.03351698
111	0x3c83185b	0.016002825
112	0xbc448dba	-0.011996681
113	0xbc77015c	-0.015076008
114	0x3d27a45d	0.040928233
115	0xbb608fb2	-0.0034265337
116	0xbc594a62	-0.013262363
117	0xbcbe3b9a	-0.02322178
118	0xbdb8563c	-0.09000823
119	0x3b9b396e	0.0047370708
120	0x3d2c3e48	0.042051584
121	0x39eaa0cc	0.0004475176
122	0xbbb03ba7	-0.005378205
123	0xbccc055b	-0.024904897
124	0xbd6d219e	-0.057893388
125	0x3c95cae0	0.018285215
126	0xbd689139	-0.05677912
127	0x3d3c8fad	0.046035457
128	0x3cc58225	0.02410991
129	0xbd9e49ab	-0.07728895
130	0xbbfca6af	-0.0077103
131	0x3d79b163	0.060960185
132	0xbc97baa3	-0.018521613
133	0x3b8a7984	0.0042259116
134	0xbb86c96c	-0.004113367
135	0x3e23f861	0.16012718
136	0xbd46760a	-0.048452415
137	0x3d131d55	0.035916645
138	0xbc55733f	-0.013027965
139	0x3d9ffe52	0.078121796
140	0x3c35f465	0.0111056315
141	0x3c31246e	0.010811908
142	0x3c53af7a	0.012920255
143	0x3c513dab	0.01277105
144	0x3d43f636	0.047842227
145	0xbc65625e	-0.014000503
146	0xbd4ff85a	-0.050773956
147	0xbda85ebd	-0.08221195
148	0xbd39d761	-0.045371417
149	0xbbcaaebc	-0.0061853807
150	0x3c074236	0.008255532
151	0x3b51b378	0.003199784
152	0xbc0abbae	-0.008467598
153	0x3c84d215	0.016213456
154	0x3d11d22c	0.035600826
155	0x3dae82d5	0.08521048
156	0xbc8c617e	-0.017136332
157	0x3d590218	0.052980512
158	0xbdc03562	-0.09385182
159	0x3d907a7b	0.07054611
160	0x3bb6f3c1	0.005583257
161	0x3bf1f84f	0.007384337
162	0x3ccf29b7	0.025288446
163	0x3da7059a	0.08155365
164	0x3d290b71	0.041270677
165	0xbd0784aa	-0.033085503
166	0xbda0ca61	-0.07851101
167	0xbdc77f94	-0.097411305
168	0x3e076cff	0.13225172
169	0xbd454403	-0.048160564
170	0xbc387997	-0.011259458
171	0x3d030469	0.031986628
172	0xbd815c2b	-0.06316408
173	0x3cc8e5e3	0.024523681
174	0xbce59571	-0.02802536
175	0x3c86f3c7	0.016473664
176	0xbc8df0c6	-0.017326724
177	0xbc45b485	-0.012066965
178	0xba24f86a	-0.000629312
179	0xbd495891	-0.04915673
180	0xbd045626	-0.03230872
181	0xbd1a1d90	-0.03762585
182	0x3d2b31a4	0.041795388
183	0x3c8efea3	0.017455405
184	0xbddaab2a	-0.10677178
185	0xbd951fa5	-0.07281426
186	0x3de77157	0.11300915
187	0xbc01037a	-0.007874364
188	0xbd7800c8	-0.06054762
189	0xbb4740a5	-0.0030403521
190	0xbd80dc8c	-0.06292066
191	0x3cbfc016	0.023407023
192	0xbdfc6245	-0.12323431
193	0xbd909746	-0.07060103
194	0xbd4e849e	-0.050419442
195	0x3d99a672	0.0750245
196	0x3c87bdc7	0.016569985
197	0x3cf490f6	0.029854279
198	0x3cc90003	0.024536138
199	0x3dc2b3ef	0.09506976
200	0xbc42b1ff	-0.011883258
201	0x3d1d81f9	0.03845403
202	0xbd0605ba	-0.032720305
203	0xbc1fb0b0	-0.009746715
204	0xbd8117a2	-0.06303336
205	0x3d250944	0.04029204
206	0xbcbdae7c	-0.02315449
207	0x3d8e9628	0.06962234
208	0x3d15c4e0	0.036564708
209	0xbcae9159	-0.021309542
210	0x3d5e1ca3	0.05422653
211	0x3d19a174	0.03750749
212	0xbd12b9eb	-0.035821836
213	0xbcdcab55	-0.026937166
214	0x3c0db863	0.008649918
215	0x3d152687	0.036413696
216	0xbb5de7db	-0.003386012
217	0x3d0a9cb0	0.033840835
218	0xbb949437	-0.00453427
219	0x3d490970	0.049081266
220	0x3d6d0550	0.057866395
221	0xbcf93227	-0.030419422
222	0x3d831f0f	0.06402408
223	0x3c2acc56	0.010424694
224	0x3c642e42	0.013927044
225	0x3df2288a	0.118241385
226	0xbda7c34a	-0.08191545
227	0xbb35f63d	-0.0027765178
228	0xbd37eeee	-0.044905595
229	0x3d2af3eb	0.041736525
230	0x3d1194d0	0.03554231
231	0x3d423792	0.047416277
232	0xbca9485b	-0.020664385
233	0xbd3537ac	-0.044242546
234	0x3cb05597	0.021525187
235	0xbc919053	-0.017769014
236	0x3d081ba2	0.033229478
237	0xbd7feb08	-0.062480003
238	0xbd79c39c	-0.060977563
239	0x3cf30a18	0.029667899
240	0x3ccd266f	0.02504274
241	0xbb5748b2	-0.0032849726
242	0xbd07da46	-0.033167146
243	0x3c604f8b	0.0136908395
244	0xbdaaa541	-0.08332301
245	0x3dcc613b	0.09979483
246	0x3d71921e	0.05897724
247	0x3c0e4de5	0.008685564
248	0x3c9a4f99	0.018836783
249	0x3b25f468	0.002532268
250	0xbc690053	-0.014221269
251	0xbdbd28e4	-0.09236315
252	0xbd96560a	-0.073406294
253	0x3cef5380	0.02921462
254	0x3d92943e	0.07157181
255	0xbcddefce	-0.027091887

bias f4 [12]
0	0xbd22e447	-0.039768483
1	0x3e125eb2	0.14293936
2	0xbd7badae	-0.06144493
3	0x3d59e975	0.053201158
4	0xbd45f117	-0.048325624
5	0xbe33ad8e	-0.17546675
6	0xbd443617	-0.047903147
7	0x3e2cc3bb	0.1687154
8	0x3ce15e2e	0.027510729
9	0x3d35712f	0.044297393
10	0x3dc68c65	0.09694747
11	0xbd81adb5	-0.0633196
