deploy/pre_train/go2/policy_15000.pt (torch, 774536 bytes, 8 tensors)

weight f4 [512, 48]
000000 85 71 03 bd 68 2e 46 be c4 26 09 3b af 27 d8 bc
       -0.032090683 -0.1935364 0.0020927647 -0.02638611
000010 b2 27 09 3f 73 cc 80 be 43 a3 ec be b4 e1 f1 be
       0.53576195 -0.25155982 -0.4621831 -0.4724251
000020 c6 20 c6 3d 20 86 d7 bc 08 22 19 3e 8d 4b f7 bd
       0.0967422 -0.026309073 0.14954388 -0.12074957
000030 b3 66 ae 3e ac 29 45 3e 65 21 59 bd b2 1b 6e be
       0.34062728 0.19254178 -0.053010363 -0.23252752
000040 e0 d2 74 be 37 16 cb be 34 6a 6a be fd 33 db 3c
       -0.23908567 -0.39665386 -0.22892076 0.026758188
000050 28 40 b4 3e ea d6 c5 3e 35 08 c1 3e be da 54 3e
       0.35205197 0.3864053 0.37701574 0.20786569
000060 b0 02 5f be 3e b3 03 be a1 1d 0e bd 1b e1 cf 3e
       -0.21778369 -0.12861344 -0.034696225 0.4060143
000070 93 04 e0 be 2c 96 c0 bd f7 8c a3 bd f0 6b f0 3e
       -0.4375349 -0.09403643 -0.07985871 0.4695735
000080 50 4b c8 3e ca 50 a8 bd 74 c4 9b bd c4 4d 23 3e
       0.3911996 -0.08218534 -0.0760583 0.15947634
000090 77 47 b6 bc 01 5c 22 bd c5 ea c0 3b fa 1f d7 3d
       -0.022250874 -0.039638523 0.0058873617 0.10504146
0000a0 2e 91 45 3c c1 3a 8c bb a3 ad d8 bc 59 09 c8 3c
       0.012058539 -0.004279465 -0.026449984 0.02441852
0000b0 80 1c 1b 3c a7 1e 26 3c 48 93 30 3c dd 45 19 3c
       0.009467244 0.010139144 0.010777302 0.009355036
0000c0 27 b9 06 be 83 e1 1e 3e 7d fd 31 3e 0e e5 15 be
       -0.13156568 0.15515713 0.17381854 -0.14638159
0000d0 99 7a 7a 3c c0 be a2 be 21 e9 a7 3e 97 ea 87 bd
       0.015288019 -0.31786156 0.3279505 -0.06636541
0000e0 e8 57 eb 3d 6d ed 58 3d 31 a8 5c be 76 f6 11 3e
       0.11491376 0.052960802 -0.21548535 0.14254174
0000f0 dc 15 92 be 55 ee d9 bd 87 db 60 bd b0 aa eb be
       -0.28532302 -0.10641161 -0.054896858 -0.46028662
000100 08 12 93 bd 8f 36 96 3d 54 d1 cd be aa 48 f8 3b
       -0.071811736 0.07334625 -0.40198767 0.0075770216
000110 e8 41 c3 3d 91 f1 50 3d 92 2f 18 be 59 5c 09 bd
       0.09534055 0.051011626 -0.14861897 -0.033535335
000120 4c 6a bd 3d 5f d4 0b 3e 3d e4 c7 bd d9 96 29 3d
       0.0924879 0.13655232 -0.0976033 0.041403625
000130 1d 67 cd 3d 87 57 81 3e 47 da 71 3e 21 68 0c be
       0.10029433 0.2526209 0.23618422 -0.13711597
000140 a9 2a 81 bd 00 6d 45 be a1 dc 91 3e 6f 6f 03 3e
       -0.06306965 -0.19279861 0.2848864 0.12835477
000150 52 41 16 bd e4 72 c0 3c d6 26 bf 3d 87 75 c1 bd
       -0.036683388 0.023492284 0.09333579 -0.09446245
000160 64 0b 7d 3d 5c 27 22 bd 53 39 c0 bd 18 d2 4a bd
       0.06177844 -0.039588317 -0.09385934 -0.049516767
000170 99 13 8e 3c 77 af b6 bd cc e3 cf 3c eb 09 18 be
       0.01734333 -0.08920186 0.025377177 -0.14847533
000180 26 b3 55 3d b8 0f b4 bd b8 f0 8e bd 22 18 ab 3d
       0.052172802 -0.087920606 -0.06979507 0.08354212
000190 6d 9b da 3d 3a 18 93 3f ba ff 2b be c5 e0 27 be
       0.10674176 1.1491768 -0.1679677 -0.16394337
0001a0 b0 60 0b 3b 7d cd c4 bd 40 7c 6a 3d ba 33 81 bf
       0.0021267347 -0.09609506 0.0572474 -1.0093911
0001b0 d0 0d 1b 3f 9b 52 86 3e 23 71 f5 3e 96 70 5f 3d
       0.6056795 0.26234898 0.4793788 0.05455073
0001c0 f3 5c c1 3c de 97 99 be ee 4f 2a be 71 60 32 3d
       0.023603892 -0.29998678 -0.16632053 0.043549005
0001d0 aa c3 04 3e 35 d6 96 3d a5 65 86 be c1 a7 0d 3e
       0.12965265 0.073650755 -0.26249424 0.13833524
0001e0 e1 de d7 3e ba f4 93 3d bc d0 ce 3e 54 77 0f be
       0.4216223 0.07224412 0.40393627 -0.14010364
0001f0 f5 dc 36 be 93 0c 7c bd 41 72 6d 3e bc b8 19 bd
       -0.17857726 -0.06153543 0.23188116 -0.037529692
000200 d3 49 68 bd 0d 34 27 be 03 9b 2c bd 8f 1b 6b 3e
       -0.05671103 -0.1632845 -0.04214002 0.22959732
000210 3b a1 b0 3b 7a c9 08 3d 0d f1 63 be ee 30 40 bc
       0.005390314 0.033395268 -0.22259922 -0.011730416
000220 f6 1e b7 3b 7d d7 8d 3d f4 ea a1 bb 53 ca 44 bd
       0.0055884076 0.06925867 -0.0049413387 -0.048044514
000230 f2 41 6e 3d b6 2b fd bd 7d 3a da bb 0d e1 c0 bd
       0.05816836 -0.12361853 -0.0066598044 -0.09417925
000240 bd ba 0b be fc 5c 63 3e 28 2c 1e 3e 7d 22 b8 3e
       -0.13645454 0.2220344 0.15446532 0.35963812
000250 77 22 a3 be 23 65 b4 3e bb 01 ce be 3f b2 57 be
       -0.31862232 0.3523341 -0.40235695 -0.21064089
000260 cb bc 93 3d 31 64 02 3e 5e 36 35 be 30 77 82 bf
       0.07213744 0.12733532 -0.1769652 -1.0192623
000270 a4 7a 89 3e b7 21 43 be f6 65 a8 3e 22 8a cf 3d
       0.2685138 -0.1905583 0.3289029 0.101337686
000280 2c 81 a7 bd 7b b4 15 3e 5c 3c b4 be 2d 2b bd bc
       -0.081789345 0.14619629 -0.352023 -0.023091877
000290 10 fc 24 3f c9 7e 95 3e 18 f6 d9 3c 73 5a 07 3f
       0.64447117 0.29198292 0.026606604 0.5287239
0002a0 3e f6 a9 3d 0d c9 f1 3d f2 b0 22 3e 08 70 99 bd
       0.0829892 0.118059255 0.15887812 -0.074920714
0002b0 aa 22 87 be 44 a6 c8 bb 33 84 7a be 52 a3 ca be
       -0.26393634 -0.006123336 -0.24464492 -0.3957773
0002c0 74 ec 52 3d 70 04 9d be 93 77 a0 3d fa 65 0f bd
       0.05149503 -0.30667448 0.07835307 -0.03500936
0002d0 9c e1 46 3c 59 7c ce 3d 07 b7 08 be 9e 16 a7 3b
       0.01213875 0.10082311 -0.1335107 0.0050991317
0002e0 7d 2e 86 3d 43 ce ed 3c fc 8e 94 3d 0b a4 b8 3d
       0.06551836 0.029029017 0.072538346 0.09015664
0002f0 6f 91 23 3c 6d 96 2a bd a7 97 82 3a fe 26 6f bd
       0.009983405 -0.041647363 0.0009963409 -0.058386795
000300 80 8b ea bc 80 a7 9a 3c 70 9b 14 3d dc 38 a7 bd
       -0.028630972 0.018878698 0.03628105 -0.08165142
000310 e9 04 14 3d fd ed 0f 3f e7 2a c6 bd 40 ea eb 3d
       0.036137495 0.56222516 -0.09676152 0.11519289
000320 d9 a6 cc 3d 9d 48 2b 3d 3b f7 5f bd 71 a9 2b bf
       0.09992761 0.041817296 -0.054679137 -0.6705542
000330 c1 0b 8f be 6d 5d 81 3d bb 2d 8f 3e ba ad 0b bf
       -0.27938655 0.06316648 0.27964577 -0.5456196
000340 7d e3 e6 3b d1 2e a5 3e 30 d8 cc bd 4d 05 b8 be
       0.0070461617 0.3226228 -0.10002172 -0.35941544
000350 10 fb d4 3e ac 1f d8 bd be c1 fc bd a4 92 cb 3d
       0.41597795 -0.10552916 -0.12341641 0.09940079
000360 bc 0a 06 be df 6b 48 3e b4 db 1a 3e 89 d1 29 bd
       -0.13090032 0.195724 0.15122873 -0.041459594
000370 94 f3 58 be 94 ef 27 be 32 bb 61 3e c5 55 50 be
       -0.21186668 -0.16399986 0.22044066 -0.20345218
000380 2c 58 0e 3e 6f 4c bd be f9 44 a7 be 7a 0d be 3d
       0.13900822 -0.36972377 -0.3266981 0.09279914
000390 a2 58 1c bc 12 3b 81 3c 1e 62 20 bd c3 81 b1 3c
       -0.009542616 0.015775237 -0.03915607 0.02166832
0003a0 e3 1f 13 3d 58 c1 4b bd 6a b2 b9 bd a9 44 a2 3c
       0.03591908 -0.049744934 -0.09067233 0.01980813
0003b0 c7 fe b1 bd f8 19 1b 3d 70 d1 2c 3d 76 30 42 bd
       -0.08691173 0.037866563 0.042191923 -0.047409497
0003c0 60 81 ed 3c 06 dd 13 be 0b fb af 3d 1d 99 ce 3d
       0.028992355 -0.14439783 0.085928045 0.10087798
0003d0 0e 85 2c be 32 91 f3 be fb 40 0c bd 9d 79 87 be
       -0.16847631 -0.47571713 -0.034241658 -0.2645997
0003e0 f1 d9 07 3e 40 1d d1 bd 94 9f 68 bd 64 84 a3 bf
       0.13266732 -0.10210657 -0.05679281 -1.2774777
0003f0 93 08 70 3e d0 04 ab 3d fc c7 66 be b6 6a fe 3e
       0.23440771 0.08350527 -0.22537225 0.4969079

bias f4 [512]
000000 8e 28 e8 bd 1c 52 56 be 7f 8b 24 3e 73 06 fe bd
       -0.1133586 -0.2092976 0.16068839 -0.12403574
000010 c9 18 04 bd 8a a3 98 be 01 7e e6 bd fe 93 7a be
       -0.0322502 -0.2981227 -0.11254502 -0.24470517
000020 9c 64 96 bd b2 ba 2a 3e b7 d2 07 3d 6b c5 d1 3d
       -0.073434085 0.16672781 0.033159938 0.102427326
000030 41 82 6b 3d c5 12 bc 3d 5a 05 73 3c f4 96 18 be
       0.057497267 0.091832675 0.014832819 -0.14901334
000040 fe cc 27 be 9e 3f 88 3e 37 7c 21 be fe c9 0b be
       -0.16386792 0.26611036 -0.1577004 -0.13651273
000050 dd bb dd 3c 26 38 df bc 4d 7f 6a be 01 6d 67 bd
       0.02706712 -0.027248453 -0.22900124 -0.05650044
000060 98 b6 1c be 18 d6 77 3d 9d 79 8d bd 69 6b 74 3d
       -0.15304029 0.06050691 -0.069079615 0.059672747
000070 50 c1 ba 3d 56 39 39 3e f4 f7 80 3c de e9 a1 be
       0.09118903 0.18088278 0.015743233 -0.3162374
000080 73 c6 d6 bd fa 1e 19 be cd 01 5d be 12 d5 1f bd
       -0.1048707 -0.14953223 -0.21582718 -0.03902156
000090 69 4b ba 3d 27 6f b9 3d b2 dc 16 3e 40 e7 d4 bd
       0.090964146 0.09054404 0.14732626 -0.1039567
0000a0 ad c7 63 3d eb c5 9b be 85 4e 10 bd 50 49 25 3e
       0.055610348 -0.30424437 -0.035231132 0.16141248
0000b0 6a c8 22 bd 91 21 f6 bc 09 38 67 be cc 7f 3a be
       -0.03974191 -0.030045303 -0.2257997 -0.18212813
0000c0 d1 c8 47 be 29 ea d9 3d 5a fa 58 be 73 49 cb 3c
       -0.19510199 0.10640366 -0.21189252 0.024815297
0000d0 15 2d a8 3d 9a 3c 3e be b6 07 0c 3b 29 cd 1c 3e
       0.08211724 -0.18577805 0.00213669 0.15312637
0000e0 a2 20 35 bd 84 ca 32 be 6e 73 09 3d b9 58 88 be
       -0.044220574 -0.17460066 0.033557348 -0.2663019
0000f0 ee 41 6e bd fa 25 6e be 69 2c 0e 3d 45 b6 a9 3d
       -0.058168344 -0.23256674 0.03471032 0.08286718
000100 4c e5 68 be 51 2e 25 3e c0 de bf 3d d9 97 2a bd
       -0.2274372 0.1613095 0.09368658 -0.04164872
000110 c9 87 73 bd 88 9c e6 3d a1 08 31 bd ab 08 2f be
       -0.059455667 0.11260325 -0.04322112 -0.1709315
000120 b3 3c d8 bd 6a 08 2b 3d ac ae 85 be f5 67 18 3e
       -0.105584525 0.04175607 -0.26109827 0.14883406
000130 c4 05 74 bd e1 f5 01 be f4 e3 de 3d d1 c8 63 be
       -0.05957581 -0.12691452 0.10883322 -0.22244574
000140 14 54 ca bd 9e 2b cc 3d 4f 42 b5 bb 60 76 d7 39
       -0.09879318 0.09969257 -0.0055315862 0.00041096192
000150 71 4d 52 bc 63 33 cb 3d eb db df bd d5 58 fc bd
       -0.012835846 0.099219106 -0.10930618 -0.12321631
000160 18 4c 38 be 0b fe 6d bd 65 2b eb bb 1f a0 0c 3e
       -0.17997777 -0.058103602 -0.007176804 0.13732956
000170 7f f8 fd bd e3 cf 0b be 2e ea 60 bd e2 81 11 be
       -0.124009125 -0.13653521 -0.05491083 -0.14209703
000180 7a cd 31 be 45 be c4 3d d9 a1 08 be 15 62 0d be
       -0.1736354 0.096066035 -0.1334299 -0.13806947
000190 a2 bb 42 be 8d 48 c6 bd 9d fb 2c 3e 06 1b d1 bd
       -0.19016889 -0.09681807 0.16892858 -0.102102324
0001a0 a9 38 57 3d 0a d5 f4 bd 37 28 1c be f4 35 25 be
       0.05254427 -0.119546965 -0.15249716 -0.16133863
0001b0 80 32 24 be 2f f5 9e bd b5 7d e5 bd 8d 8d 10 be
       -0.16034889 -0.07761609 -0.11205617 -0.14116497
0001c0 d4 fb 91 3d 56 e7 21 be 02 e7 56 3d 74 f4 82 3d
       0.071281105 -0.15810904 0.0524664 0.06394282
0001d0 17 79 b1 bd 13 85 07 bd b3 78 f6 3d e1 ac b1 bd
       -0.08665674 -0.033085894 0.1203474 -0.08675552
0001e0 8c 8e d8 bd 20 70 b6 be 26 84 43 be 0c 34 80 3c
       -0.10574064 -0.3563242 -0.1909338 0.015649818
0001f0 b5 d2 fe bd cc 8d 89 be f2 33 e5 bc a0 33 86 bc
       -0.12442533 -0.26865995 -0.027978871 -0.016382039
000200 08 de 17 be bd 36 67 be cd bf b5 3b e8 81 fe bd
       -0.14830792 -0.22579475 0.005546546 -0.124271214
000210 1e a3 1e 3e 02 2a 85 3d 49 85 a8 bc 98 93 1c 3d
       0.15491912 0.06502153 -0.020571368 0.038226694
000220 a6 37 4c be 9f 07 7c bc db a2 12 3e 27 58 08 3e
       -0.19943103 -0.015382676 0.14319937 0.13314877
000230 aa 84 36 be 5a 81 cf 3c bf c8 c9 bd fd 13 3a 3d
       -0.17824045 0.025330234 -0.098527424 0.04542922
000240 58 50 13 be 42 37 a9 3d 1b 39 ac bd 8b a7 18 be
       -0.14386117 0.08262493 -0.084093295 -0.14907663
000250 f0 3e 17 be e1 4b 72 3d a9 e8 2c be 0e 70 4b bc
       -0.14770103 0.059154395 -0.16885628 -0.012416853
000260 36 57 87 bd cf 2d 26 be 27 ce 0a be 72 80 0f be
       -0.06608431 -0.16228412 -0.13555203 -0.14013842
000270 8a 60 b0 bd cf 64 89 bd f1 e5 fd 3d 80 9b 79 bd
       -0.08612163 -0.06708681 0.123973735 -0.060939312
000280 a1 0e c9 bd 56 54 41 bd 10 19 38 bc 31 73 aa bd
       -0.09817243 -0.04719957 -0.011236444 -0.08322752
000290 17 db e6 bd e3 07 eb bd 72 a3 cb be ab e0 d0 bd
       -0.11272257 -0.11476114 -0.39773136 -0.10199102
0002a0 a1 09 80 be e4 48 90 bc 75 ae 83 be 9d ed 06 be
       -0.25007346 -0.017612882 -0.25719038 -0.1317658
0002b0 b3 fb 9b bd 82 97 99 3d 03 77 8c bd ec 9f 9f bd
       -0.07616367 0.07499601 -0.06858637 -0.077941746
0002c0 0d 11 91 3b 8e 80 07 be a1 62 08 be 48 23 a6 be
       0.0044270814 -0.13232633 -0.13318874 -0.32448792
0002d0 2b d0 f5 3c 31 26 e6 bd 75 23 72 3d b0 9f 86 be
       0.030006489 -0.11237753 0.059115846 -0.26293707
0002e0 9b bd 42 bd d9 a2 1f 3c 57 28 13 be 9a ec e3 bd
       -0.047544103 0.009743416 -0.14370857 -0.111291125
0002f0 84 08 8e 3d a4 cc 22 3e 7e 93 6a bd d9 58 d3 bc
       0.06935218 0.15898377 -0.057269566 -0.025799202
000300 bc 83 f7 3d 79 80 0d bd 9c 6f 51 be 00 cf a2 bd
       0.12085673 -0.03454635 -0.20452732 -0.07949638
000310 df 71 7d bd 78 04 70 3d 5e 79 c0 3d 40 3e 1a 3d
       -0.061876174 0.05859801 0.09398149 0.037657022
000320 19 43 be bc 9b d2 25 3d 97 b3 53 3b 17 ad f6 bd
       -0.023225354 0.040484052 0.0032303089 -0.12044733
000330 3a 70 8e be 4d be 53 be d0 9e 2d be fa 7c f1 3d
       -0.27819997 -0.20678063 -0.16955113 0.117914155
000340 d9 61 a4 bd 77 4c 1e be 8b e7 e9 bc c1 9e 37 3d
       -0.080264755 -0.15458857 -0.028552791 0.044829134
000350 70 90 5b bc fa fb 90 bd 8e e5 84 be 6a 86 0f be
       -0.013401136 -0.07079311 -0.25956386 -0.14016119
000360 65 2a 33 bd 8f 56 04 be 70 3c 01 be f2 7c ff bd
       -0.043741602 -0.12923644 -0.12620711 -0.12475003
000370 ea 7c 3c 3e 91 7d 47 be c3 b3 2b bd 97 89 25 be
       0.18407026 -0.19481494 -0.04191948 -0.16165768
000380 f0 10 b4 3c 85 cb 38 bd 4e a4 4a 3d 04 48 72 3d
       0.021980733 -0.045115966 0.0494731 0.05915071
000390 62 af ed bd 20 0b 93 be 88 e5 2f 3e 84 cb 13 3d
       -0.11605717 -0.28719425 0.17177403 0.03608276
0003a0 6d ec 3d be 36 34 5c be 03 0b 7f 3d 83 d2 8e bd
       -0.1854722 -0.21504292 0.06226636 -0.06973746
0003b0 2a 7a 2f bd cd 96 5c be 6c f2 d7 bd ae eb 86 3d
       -0.042841114 -0.21541901 -0.10544285 0.06587921
0003c0 51 c7 ad 3d 2b 12 ab bd e1 49 03 be 6f bc 9e bd
       0.08485282 -0.08353075 -0.12821151 -0.077507846
0003d0 fe 84 f4 bd 72 55 1d 3d 6e ad 3d be ae 08 20 be
       -0.11939429 0.038411565 -0.1852319 -0.15628311
0003e0 83 39 f3 bd 98 a0 88 bc 7b 43 13 bd d8 af 84 3d
       -0.11876204 -0.01667814 -0.035953026 0.06478852
0003f0 e5 c5 fb 3c b2 5d af 3d 4c 2d 41 bd fa db 69 3e
       0.030734012 0.08562793 -0.04716234 0.2283782

weight f4 [256, 512]
000000 8a 12 bf 3d 51 b3 89 bd 82 3c 1b 3e 77 db 21 3d
       0.09329708 -0.06723655 0.151598 0.03951594
000010 96 ac 00 3d 25 8a f7 3d 46 c0 3d be 0f f6 5e 3e
       0.03141459 0.12086896 -0.18530378 0.21773551
000020 3e 47 03 3e dc 74 0e bd 37 5f ae 3c 05 a7 12 be
       0.12820145 -0.034779415 0.021285636 -0.14321525
000030 9e 2a 17 be c2 52 82 3c bd 9e 03 3e 24 fe 56 3e
       -0.14762351 0.015908603 0.12853523 0.20995384
000040 67 b0 df 3d 6a de bd 3d 31 31 42 3e 34 bd 81 3d
       0.10922318 0.09270938 0.18964078 0.06334916
000050 5e 32 fa bd 53 be 87 be f4 5b 0f 3e aa 54 c9 3c
       -0.12216638 -0.26512393 0.13999921 0.024576504
000060 34 44 0f 3e 64 50 90 3c 66 4a 5a bd 99 bd 86 3e
       0.13990861 0.017616458 -0.053293608 0.26316527
000070 48 9b 3a 3d 19 40 06 bc 67 5f 5d bc 29 23 21 bd
       0.045558244 -0.008193993 -0.013511515 -0.039340172
000080 99 6d c6 3d 29 12 9a 3e 6e 93 76 bd b8 ee b8 bc
       0.09688873 0.3009198 -0.060199194 -0.022574767
000090 74 20 e2 3d 13 08 f6 3b fb 51 51 3e 5a ef 40 3e
       0.11041346 0.0075082867 0.2044143 0.18841305
0000a0 c9 2d 05 be e7 d0 d9 3d 6b b6 8f 3e d1 16 52 3d
       -0.13005747 0.10635548 0.2806886 0.05129129
0000b0 48 1e 01 be a5 17 9e 3e a4 f6 95 3e d0 4b 81 3d
       -0.12609208 0.30877414 0.29289734 0.06313288
0000c0 36 1a f7 3d aa 8f 11 be 48 cd 2f ba da d8 aa 3d
       0.12065546 -0.1421496 -0.00067063095 0.083421424
0000d0 68 c1 26 3e 8a f0 16 3e 30 6e 32 be 0f 6e 87 3c
       0.16284716 0.14740196 -0.17424846 0.016531972
0000e0 da 54 00 be 70 1d 04 3e 4f 69 fa 3c aa 8a 79 3e
       -0.12532368 0.12901855 0.030567793 0.24369302
0000f0 56 49 bc bd 68 c2 08 3e d4 98 51 3e 2a a6 6b 3d
       -0.09193675 0.1335541 0.20468456 0.057531513
000100 57 8e dd 3d 3b ba ac 3d 82 b8 53 3c ad af b1 3b
       0.10818165 0.08433958 0.012922408 0.0054225535
000110 6e 24 b6 3e 71 e1 f1 3c fd ff 94 be b9 f5 87 3b
       0.3557467 0.029526444 -0.29101554 0.0041491655
000120 f8 78 2f be 00 49 65 bc b9 00 01 3e ed ef 10 be
       -0.1713599 -0.013994455 0.12597932 -0.14154024
000130 f3 88 be 3c b2 43 3f bd 03 fd 02 3e f7 23 e1 3c
       0.023258662 -0.04669542 0.12791829 0.02748297
000140 c7 5d 9c 3e 88 8f ff 3c e7 36 6f 3e 08 54 b1 3b
       0.30540296 0.03119637 0.23360787 0.0054116286
000150 8b 76 31 3c 12 95 71 3e c8 0c a1 3c 4b b3 78 3e
       0.0108314855 0.23592022 0.019659415 0.24287145
000160 a3 83 bb bd 09 36 af 3e 40 21 a4 3d d3 3f 9a bd
       -0.09155967 0.34220913 0.080141544 -0.07531705
000170 0a a5 0e be 4e 0c 57 3e ed 34 ec bd da 55 61 be
       -0.13930145 0.21000788 -0.11533532 -0.22005406
000180 ce 82 bb 3d 45 9a 81 be a0 57 79 be e5 3a 52 3c
       0.091558084 -0.2531301 -0.24349833 0.012831424
000190 4f a2 9f 3c e4 21 03 3e cf 10 7e bd 04 bf cd 3e
       0.019486574 0.12805897 -0.06202775 0.40184796
0001a0 ed 96 09 bd a6 3a 1b be ae 28 cf 3d f0 11 38 3e
       -0.0335912 -0.15159091 0.10115181 0.17975593
0001b0 ef 29 cf 3e af 77 10 3e 14 ad 0e bd f1 bc 55 3e
       0.4046168 0.14108156 -0.03483303 0.20872857
0001c0 96 04 cb 3c f4 52 ce 3d 38 20 b4 be 53 07 2b bc
       0.02478246 0.10074416 -0.3518083 -0.010438758
0001d0 67 83 3e 3e a4 a3 89 3e 93 ea 76 bd c1 df 4f 3e
       0.18604814 0.2688266 -0.0602823 0.20300199
0001e0 57 01 a4 3d 11 00 90 3c 1a 5d 41 3e 9f 0e b5 3d
       0.08008068 0.017578157 0.18883172 0.088406794
0001f0 84 8f 26 3e a6 5b df bd 42 7f b1 3d 4d bb 8a bd
       0.16265684 -0.109061524 0.086668506 -0.06774006
000200 3a cb 79 3e e6 de 88 3d 19 ce f3 3c 36 9c 86 3e
       0.24393931 0.066831395 0.029761361 0.26291054
000210 a0 57 68 3d 78 45 0a 3e 9d 4c 11 3e 44 1a 5b 3d
       0.05672419 0.13503063 0.14189382 0.053491846
000220 7f b4 0e be 92 f5 8f 3e 73 c2 d5 bd 18 b7 0e be
       -0.13936041 0.28117043 -0.10437479 -0.13937032
000230 e3 43 82 3d 59 3b 5f bd 02 20 1e bc d7 cf ef 3d
       0.063606046 -0.054499958 -0.009651186 0.11709564
000240 f8 c0 4d 3e 78 78 59 3a f8 8c 70 bd 89 e2 5e 3d
       0.20093143 0.00082958443 -0.05872819 0.05441526
000250 1d 38 2e b9 e9 ed 58 be ab 90 83 3c 52 8d dc bd
       -0.00016614837 -0.21184506 0.016060194 -0.10769142
000260 e9 a7 da bd 83 bc b5 3d de 02 44 3b a9 5a 4a 3e
       -0.106765576 0.088738464 0.0029908936 0.19761147
000270 1e e3 8e 3a 66 1e 74 bc 9a f0 ca 3c a4 4f 81 bd
       0.0010901426 -0.014899826 0.02477293 -0.06314018
000280 89 08 8f 3e dd 54 ef 3d fd 9c 1d 3d f4 bd 20 3e
       0.279362 0.11686108 0.038479794 0.15697461
000290 e0 e7 2f be 3a e8 c1 3d 7d a9 c5 3d 36 e4 db 3c
       -0.17178297 0.09468122 0.09651468 0.026842218
0002a0 13 d4 97 3d ba f1 39 3e 24 70 d6 3c 87 9f b7 3e
       0.07413497 0.18158618 0.02617652 0.35863897
0002b0 83 14 1d bd 54 3e e8 bd cf 05 15 be ca 6e b8 3d
       -0.03834964 -0.11340013 -0.14552997 0.09005506
0002c0 06 a9 63 bd 13 e2 d9 bd 87 77 0d be b0 b6 92 3e
       -0.055581115 -0.10638823 -0.13815127 0.28655005
0002d0 bc ba 05 be 92 6c 70 3e 43 ff 88 bc bb d2 1d 3e
       -0.13059515 0.23478916 -0.01672328 0.15412419
0002e0 43 78 b3 3d 16 cf b7 3d d7 3d 86 be 3f ed 8e 3d
       0.087631725 0.089750454 -0.26219055 0.06978845
0002f0 a8 f6 66 3e f7 f6 bf 3e 21 ed cf bc 4f fc a0 3d
       0.2255503 0.37493107 -0.025381627 0.07860624
000300 99 c0 18 3e 17 1a aa 3c 21 0d f8 3d 45 8e 87 3e
       0.1491722 0.020764394 0.12111879 0.2647573
000310 2c b4 b2 3d 6e 9f cd 3d 45 20 9c bd 55 c2 42 3e
       0.08725771 0.100401744 -0.076233424 0.19019444
000320 97 f9 4f 3e 00 d3 d1 bd f1 1f 1b 3e 25 07 3e 3c
       0.20310055 -0.10245323 0.15148903 0.011598383
000330 53 83 bd 3e d4 93 82 3d 6e 20 6b 3d f9 2b 59 bd
       0.37014255 0.06375852 0.057403974 -0.05302045
000340 24 01 a2 3e a1 68 6a 3e 62 d4 5c 3d e1 2a 76 be
       0.31641495 0.22891475 0.05391348 -0.24039795
000350 d5 68 a8 3c 6a 1d 66 3d 07 e8 15 3d e9 89 55 3d
       0.0205578 0.056180395 0.03659823 0.052133474
000360 8e d1 64 3e ea e3 7a 3e 7d 5a eb 3b ba 9c 67 3c
       0.22345564 0.24501005 0.007182418 0.014136488
000370 13 90 fd bc 6e 68 47 bc 7e a7 12 3e 67 be 13 3e
       -0.030952489 -0.012170894 0.14321706 0.14428101
000380 8b 38 be bd 11 d7 01 be ae d0 fd 3d 3e ba 99 bd
       -0.092881285 -0.12679698 0.12393318 -0.07506226
000390 c4 db 88 3e c7 a4 95 3e 4f 5b 7b bd d4 2c d3 bb
       0.26730168 0.29227278 -0.061366376 -0.006444553
0003a0 ba 6e 0e 3e 37 66 e2 3d 46 4a f3 bb 96 ea 5c 3e
       0.13909426 0.11054652 -0.0074246256 0.21573862
0003b0 f9 fa a2 3d 08 18 43 3d bc ae 9d bc 24 49 f9 38
       0.079580255 0.04763034 -0.019248359 0.00011886869
0003c0 b0 fa c2 3d a3 15 ff 3e e8 7d 45 3e 76 2c c6 bb
       0.09520471 0.49821195 0.1928631 -0.0060477806
0003d0 26 54 c3 bd 70 58 14 be ce ce 4a 3e 4c 51 34 be
       -0.095375344 -0.14486861 0.19805452 -0.17609137
0003e0 2d 72 4a 3d d1 b2 cf bd 9d f7 ce 3d c3 f4 5c 3c
       0.049425293 -0.101415284 0.10105822 0.01348609
0003f0 2b 8e cb 3d 15 85 87 bd 38 df 96 3e 6a 87 8b bd
       0.09939226 -0.0661718 0.29467177 -0.068129376

bias f4 [256]
000000 fd 93 0e be fe 4c b3 bd 4f e7 c5 bd 90 6b 30 be
       -0.1392364 -0.087549195 -0.09663259 -0.17228532
000010 53 2d 06 be 58 18 be bd d3 f9 06 be 35 6d 91 bd
       -0.13103227 -0.09281987 -0.13181238 -0.07100908
000020 f0 d4 9b bd b2 76 13 be 4a 2e 9d bd 44 29 1e 3b
       -0.07608974 -0.14400747 -0.076748446 0.0024133483
000030 e1 de 52 bc 74 dd a9 3c ba d3 09 be bc ed ac 3d
       -0.012870521 0.02073548 -0.13459674 0.08443782
000040 e3 56 10 be b9 79 80 bb b7 d1 16 be af 27 03 bd
       -0.14095645 -0.0039207605 -0.14728437 -0.032020267
000050 69 0d 8a bd e2 53 a6 bd f5 41 9a bd 4b 99 c8 bd
       -0.06740839 -0.08121468 -0.075321116 -0.09794863
000060 ca d7 f8 bd ec 3d 2e be 33 3f 47 be ba 72 9b bd
       -0.121505335 -0.17015809 -0.19457702 -0.07590242
000070 9b 0d e9 bc 9f ef 10 be 6d 3e 98 be c4 71 93 bd
       -0.02844887 -0.14153908 -0.29735127 -0.071994334
000080 78 53 07 3b 61 59 67 bd 2d 4f 12 be b3 0c c0 bd
       0.0020649116 -0.056481723 -0.14288016 -0.09377422
000090 c0 2d 05 be 1e 65 10 be 7f 5f fd bd 73 68 c9 be
       -0.13005733 -0.14101073 -0.1237173 -0.393375
0000a0 e3 fd 0a be 9c 4e 08 be 05 43 00 be 08 c4 15 be
       -0.13573413 -0.13311237 -0.12525566 -0.14625561
0000b0 a3 7a 12 be fa 9a c9 bd 0b 60 14 be cb 82 31 be
       -0.14304595 -0.098440126 -0.14489762 -0.1733505
0000c0 fa 97 ce bb 15 92 b0 bd 7d fe 6a be 7e 8a f2 be
       -0.006304738 -0.08621613 -0.22948642 -0.47371286
0000d0 91 fb e8 bc 22 0f 8d bd 51 e0 d5 bc 3b bb 04 be
       -0.028440269 -0.06887652 -0.026107939 -0.12962048
0000e0 06 1b 39 3c f3 a8 19 be 9f 4d d1 bd fd b6 7b bd
       0.011297947 -0.15005855 -0.10219883 -0.061453808
0000f0 96 c6 24 be 58 af 0e be b1 33 80 bd 1c 0c a4 bd
       -0.1609138 -0.13934076 -0.06259859 -0.08010122
000100 d5 70 f5 bd af c6 47 be fe 7d 9b be 52 a7 93 bd
       -0.119844116 -0.19509386 -0.30369562 -0.07209648
000110 35 02 b1 bd e5 76 b3 bd 80 63 2a be f9 fa 01 bd
       -0.08642999 -0.08762912 -0.16639519 -0.031733487
000120 e5 cb 09 be 93 c5 e5 bd 1f 92 05 be 81 3b 09 3c
       -0.13456686 -0.11219325 -0.13044022 0.008376003
000130 c6 bc f7 bd b2 2f 49 bd db 0e fe bd b0 9e 96 be
       -0.120965526 -0.04911775 -0.12405177 -0.29417944
000140 f3 aa 4c be 2a b1 ca bd d4 b3 42 be 29 60 eb bd
       -0.19987087 -0.098970726 -0.19013911 -0.114929505
000150 02 9a 10 be f1 f1 d4 bd 6a 9f ca bd f9 b3 1f be
       -0.1412125 -0.10397709 -0.09893687 -0.15595998
000160 6e 81 11 be aa fa 8e bc 9f 05 57 bd c6 71 88 3b
       -0.1420953 -0.01745351 -0.052495595 0.0041639535
000170 3d 58 0f bc 21 d2 da bd a7 13 ee bd f9 b9 92 bd
       -0.008749065 -0.1068461 -0.11624842 -0.07164378
000180 68 4a 23 be cf a1 e5 bd b2 fe bc bd 28 12 03 be
       -0.15946352 -0.11212503 -0.09228267 -0.12799895
000190 e5 fe bc bd a4 b0 8c bd 30 02 f1 bd 09 7e 3a be
       -0.09228305 -0.06869629 -0.11767995 -0.18212141
0001a0 44 b3 41 bc 1a 88 68 be 9e a0 14 be 00 2c 12 be
       -0.011822525 -0.22708169 -0.14514396 -0.14274597
0001b0 58 22 da bc 9a 3d 03 be 87 a0 23 bb 9e 31 0b be
       -0.026627705 -0.12816468 -0.0024967508 -0.13593146
0001c0 7b 48 8c bd 4c ae 29 3c 50 72 41 be 70 a2 2f be
       -0.06849762 0.010356497 -0.18891263 -0.17151809
0001d0 c5 05 8e bd 2a e3 f9 bd 39 69 b7 3c 54 d2 ea bb
       -0.06934694 -0.12201531 0.022389041 -0.0071661863
0001e0 67 1c b9 bd bc 55 8e be 46 e6 d3 bd 7a 07 76 be
       -0.090386204 -0.27799785 -0.103466555 -0.2402629
0001f0 3a 1b c2 be 97 68 b8 bd 92 d4 fc bd 3a 18 6b be
       -0.37911397 -0.09004324 -0.12345232 -0.2295846
000200 fa 3c 53 bd fb a3 a0 bd 03 b9 f5 bd e0 c2 b8 bd
       -0.051571824 -0.07843777 -0.11998179 -0.090215445
000210 80 ea f6 bd 08 97 d0 bd f3 7f 4a be 11 24 57 bc
       -0.12056446 -0.10185057 -0.19775371 -0.0131311575
000220 fc e9 9b be 87 f7 70 be 17 0a 23 be 5a ca f4 bd
       -0.30451953 -0.23531924 -0.15921818 -0.11952658
000230 73 36 68 bd 41 f2 df bd 65 74 93 be b1 4d 8e ba
       -0.05669255 -0.10934878 -0.2879974 -0.0010856894
000240 2f 43 15 be a8 94 83 be bc 36 20 be ae 7b ee 3c
       -0.1457641 -0.25699353 -0.1564588 0.02911171
000250 c5 ff 4d be 1f 8b a9 bd c1 ce f0 bd ee c0 2c be
       -0.201171 -0.08278488 -0.11758185 -0.16870472
000260 67 07 ba bd 14 61 f5 bd d7 d0 09 be cf e0 aa bb
       -0.09083443 -0.11981407 -0.13458572 -0.0052147876
000270 82 69 9b bd 62 be cd bd ce 4a 70 be b1 e1 0c 3d
       -0.075884834 -0.10046078 -0.23466036 0.034394924
000280 b6 2b b3 bd 4f a3 e4 bc 8a 28 8e bd a4 93 eb bd
       -0.087485716 -0.027909903 -0.06941326 -0.115027696
000290 47 4f 2c be ee d7 25 be a0 5c c7 bd 2f 8f 63 3d
       -0.16827117 -0.16195652 -0.09734464 0.055556472
0002a0 45 7f 21 3c dc d8 2a be 4e 1b ba bd f7 80 f0 3c
       0.009857004 -0.16684288 -0.09087239 0.02935837
0002b0 70 8a bc bc f6 4c 35 3b f0 57 22 be a4 60 0d be
       -0.02301523 0.002766428 -0.15853858 -0.13806397
0002c0 99 b1 4e bd d1 cd b4 bd bd e2 d3 be 9c 9b c5 bd
       -0.05046234 -0.08828319 -0.41383925 -0.09648821
0002d0 44 21 d6 bd 2a c2 12 bd 8e ed ae bd f6 b3 02 be
       -0.10455564 -0.0358297 -0.08541404 -0.12763962
0002e0 79 9e 3f bd b4 e7 f7 bd 98 51 ed bd f6 8f e3 bc
       -0.04678199 -0.12104741 -0.115878284 -0.027778607
0002f0 b7 33 6d be dc 95 36 bd 4f 07 a4 bd c7 88 09 be
       -0.23164259 -0.04457651 -0.080092065 -0.13431083
000300 6b cd 14 be dd e1 ed bd 3e 94 81 3a 6a 72 56 bd
       -0.14531486 -0.116153456 0.0009886099 -0.052355208
000310 8b f2 34 be 86 c8 28 be ca 2a 1b be 1e 24 2a be
       -0.17670648 -0.16482744 -0.15153041 -0.1661534
000320 5b 00 03 bd eb 15 07 be a3 c8 11 bd c2 e9 20 3c
       -0.03198276 -0.13191955 -0.035591733 0.009821357
000330 24 e0 98 be b9 c4 01 be 93 86 0c be 34 b9 de bd
       -0.29858506 -0.126727 -0.13723211 -0.108751684
000340 06 e6 4d be d8 b6 14 be 45 63 89 bd 40 c7 9e bc
       -0.20107278 -0.14522874 -0.06708387 -0.01938212
000350 9e a9 f5 3c 0f 90 bf bb ce 39 52 be bd 27 55 be
       0.029988106 -0.0058460305 -0.20529863 -0.2081594
000360 bd 24 04 be 89 c1 2c be d5 74 15 bd de 25 66 be
       -0.1290464 -0.16870703 -0.036488373 -0.22475383
000370 ef ca b7 bd 98 2c 48 be 7d 5f ba bd 42 90 84 bd
       -0.089742534 -0.19548261 -0.09100244 -0.064728275
000380 a0 1b b5 bd 9c 09 f5 bd c9 60 49 bd 07 8a 4f bd
       -0.0884316 -0.119647235 -0.049164567 -0.050668743
000390 fa ef 08 bc ee 4c 20 be 9e a1 0b be 6f 8e b3 bd
       -0.008357996 -0.15654346 -0.13635871 -0.087674014
0003a0 f3 d4 85 bb c7 32 c6 bd dd 93 7e bd fa c1 1e be
       -0.0040842234 -0.09677654 -0.062152732 -0.15503684
0003b0 a6 39 6c bd f7 19 05 be cb b2 e7 bc 61 25 4a be
       -0.057672165 -0.12998186 -0.028283497 -0.19740821
0003c0 63 9e 02 bd 03 46 e1 bd 2d 46 81 be ea a6 c9 be
       -0.03188933 -0.10999682 -0.25248852 -0.39385158
0003d0 4b 0f 93 be a7 56 75 bd 56 eb 79 bd 1b df cb bd
       -0.28722605 -0.05989709 -0.06101545 -0.09954663
0003e0 ad f8 fd bd 20 64 5d bc 39 c3 9d be a7 91 94 bd
       -0.12400947 -0.013512641 -0.30813006 -0.072543435
0003f0 d8 f7 57 bd e3 73 ed bd 4b b1 6a bc a9 a6 04 be
       -0.052726597 -0.11594369 -0.0143244965 -0.12954201

weight f4 [128, 256]
000000 00 c2 a9 bd f2 2e 3e bc fc 6a cc bc 3d ef 9d bc
       -0.08288956 -0.011607872 -0.024953358 -0.019279117
000010 95 28 37 be 27 12 9a bd 11 42 40 ba f7 18 fa 3c
       -0.17886575 -0.075229935 -0.00073340634 0.030529482
000020 b7 d3 2f bd b0 e0 44 3c 6e 0c c8 3d f1 14 3c bd
       -0.042926516 0.01201646 0.09767996 -0.04591841
000030 29 57 57 bd f4 ea 1e be e9 05 69 bd 29 7e f2 bd
       -0.052573357 -0.15519315 -0.056890402 -0.118404694
000040 ef 08 ba 3d d6 1e c5 bd 77 37 a1 bc 5e 93 01 be
       0.09083735 -0.09625022 -0.019679768 -0.12653872
000050 18 13 c1 3d a5 35 64 bd ef 9c 31 bc 7f b6 22 3b
       0.0942747 -0.055715222 -0.010840639 0.0024828014
000060 e5 f6 10 bd e2 ff 06 be 93 2d 08 bd 29 7b 38 3d
       -0.035391707 -0.13183549 -0.033246588 0.04503933
000070 dd 95 3b be cf f0 59 bd de ef 23 bd 52 0f ac 3d
       -0.18318887 -0.05320817 -0.040023677 0.084013596
000080 8d f0 5d bd b2 5b 66 bd 5d c4 7b bc 6a 80 7b 3d
       -0.054184485 -0.05623979 -0.015366641 0.061401762
000090 8a e2 a1 3c df 98 33 3c dd c7 17 3d a5 0a 9b 3d
       0.019761343 0.01096174 0.03705584 0.0757039
0000a0 b8 d6 1f 3d 8c b6 45 bd cd 78 97 3d 80 fd 83 3c
       0.03902313 -0.048269793 0.07396088 0.01611209
0000b0 5b b6 0c bd 7f f5 20 bd c0 08 d3 bc 85 54 04 bc
       -0.034353595 -0.039296623 -0.025761008 -0.008076792
0000c0 9d fc 02 3c f6 0f 6f be 38 a4 1b bd e7 68 20 3e
       0.007994798 -0.23345932 -0.037998408 0.15665017
0000d0 39 2e 98 3c 1f 1d 14 bd ea fe a0 3b 20 5c f8 3d
       0.018576728 -0.036160585 0.0049132006 0.121269464
0000e0 63 9e 54 3d a8 df 3e 3d 82 bc 95 bd 06 88 54 3d
       0.05190886 0.046600014 -0.07311346 0.051887535
0000f0 55 22 11 bd f5 29 11 3d 42 19 00 be 70 40 98 bd
       -0.035433132 0.035440404 -0.12509635 -0.074341655
000100 12 d9 98 3b 66 9b 60 bd a7 f3 8e 3d 2f e0 da bd
       0.0046645487 -0.0548357 0.06980067 -0.10687291
000110 bb 23 6a 3d da 0d dd 3d 1a 3b 67 bc 9f ef 00 3e
       0.05716298 0.107936576 -0.014113212 0.12591408
000120 fe ae 1f ba 41 70 93 3d 64 56 85 bd a2 38 63 bd
       -0.00060914445 0.07199145 -0.06510618 -0.05547393
000130 a6 eb 96 bd 88 8b 6d bc c8 0f f0 3d 01 86 d9 3c
       -0.07369165 -0.014498599 0.1172176 0.026553156
000140 ed af aa bc b4 37 08 be e3 dd 3a 3d 55 92 ae bd
       -0.020835841 -0.13302499 0.045621764 -0.08524004
000150 24 ff a3 3c eb 9d cc bd 86 20 57 3d af db 61 bd
       0.020019121 -0.09991058 0.05252125 -0.055141147
000160 6e f0 99 bd 89 f0 29 bc 46 c3 0b be 70 7e b8 ba
       -0.075165614 -0.010372289 -0.1364871 -0.0014075767
000170 33 7e 25 3d 80 b1 c3 bc d0 b6 79 3d 6f d5 ae bd
       0.040403556 -0.02388835 0.06096536 -0.08536803
000180 91 e5 49 be a3 19 9f bd b1 6c ae 3c 17 c1 0a be
       -0.19716479 -0.07768562 0.021292062 -0.1355022
000190 7b 94 8e 3d ef 37 e4 bd b7 48 01 3e 43 7c 06 bd
       0.06961914 -0.11143481 0.12625395 -0.03283335
0001a0 03 a1 29 3d e9 10 2e bd ca 26 97 3d d6 5c fd bd
       0.04141332 -0.042496596 0.07380445 -0.12371223
0001b0 7b ed f2 ba e4 d2 8c bd 71 38 df bc 9d 54 44 3d
       -0.001853391 -0.06876162 -0.027248593 0.047932256
0001c0 4a 35 51 3e be 2d 9d bd 1b ad d3 3c 22 b0 de 3b
       0.20430484 -0.0767474 0.025839379 0.006795899
0001d0 7e da fa 3c f3 6f ca 3d 35 e2 b4 bd 25 ba 8f 3c
       0.030621763 0.09884634 -0.08832208 0.017544815
0001e0 89 24 d6 bc 83 a9 66 3b e3 d2 02 bd bf b8 39 3c
       -0.026140468 0.0035196252 -0.0319394 0.011335551
0001f0 f1 0a d4 3c 19 8c a6 bd 12 0c e1 3c c3 fe f1 bd
       0.025884124 -0.0813219 0.027471576 -0.1181617
000200 a1 2d 8e bb ec 86 54 be 7c e9 2f bc b6 15 24 3e
       -0.0043389355 -0.20754594 -0.010736819 0.16023907
000210 0a e7 f3 bb 2d 49 71 bd 74 e4 83 3d be b2 8d 3d
       -0.0074433135 -0.058907676 0.06440058 0.06918858
000220 e7 7a 99 3d 33 37 18 3e d2 2b b6 bd bb 2a 9b 3d
       0.07494145 0.14864807 -0.08895077 0.075765096
000230 9f 9d c1 3d 5e 39 0d bd 15 50 78 bd d4 51 fc bd
       0.09453892 -0.034478538 -0.060623247 -0.12320295
000240 46 75 9d bd cd 42 1b 3d 5f 46 a5 3d ee 10 41 bd
       -0.07688384 0.037905503 0.08070063 -0.047135286
000250 0d 67 85 3d 2d 7f f0 bc c2 f1 92 3d f4 78 f1 bb
       0.06513796 -0.029357517 0.07175018 -0.007369155
000260 36 b1 41 bd 60 1a fd 3d 96 53 f3 bd 15 b0 b4 bd
       -0.047288142 0.12358546 -0.11881177 -0.088226475
000270 8e 0d 37 3d 16 74 ba bc 67 dd 12 bd b5 87 0b 3c
       0.04469066 -0.022760432 -0.035855677 0.008516242
000280 2c 04 fe bd 20 3e 13 bd 72 dc a9 bd a1 68 e5 bc
       -0.124031395 -0.03594792 -0.08294 -0.028003993
000290 cd ee 56 3e c4 32 a7 3d a9 1a 2a bd dc 88 be 3d
       0.20989533 0.0816398 -0.04152933 0.093034476
0002a0 e3 ee 14 bd fe 27 1c 3d ec 2a 35 bd 2e 19 13 bd
       -0.036360633 0.038124077 -0.044230387 -0.035912685
0002b0 e0 40 a4 3c e2 d7 bb bd c8 9a 51 3d ce 9f fb 3d
       0.020050466 -0.09172036 0.051173 0.1228634
0002c0 e3 2d 0f be ad 34 40 be 28 09 bf 3d 38 47 ae 3d
       -0.13982348 -0.18770094 0.09327918 0.08509678
0002d0 0c 66 90 3d 51 4e 2b bd cb 57 90 3d 40 73 54 bd
       0.07050714 -0.041822735 0.07047995 -0.051867723
0002e0 7f 6e 2d bd 86 81 29 3d 5d e0 b7 bd c7 08 83 bd
       -0.042341705 0.04138329 -0.08978341 -0.063981585
0002f0 9a c5 6b 3d 00 0e 41 3d 99 89 2a bc e7 2a a1 3c
       0.057561494 0.047132492 -0.010408782 0.019673778
000300 5f 59 95 3d 47 8d cc bb 07 14 c8 3d 2a fa 63 bc
       0.07292437 -0.0062424275 0.09769445 -0.013914624
000310 78 38 e9 bd 34 d9 be bd ee 50 1c 3d cf 66 63 3c
       -0.11387724 -0.09318772 0.038163118 0.013879492
000320 b5 11 a1 3b 4f 33 8d bd cc 5d 1f 3e b0 e2 3e be
       0.004915441 -0.06894552 0.15563124 -0.18641162
000330 af f8 d8 bd db 86 41 bb c9 1f 32 bd d5 21 8c bc
       -0.10594308 -0.0029529843 -0.043487344 -0.017105976
000340 d0 ad a9 bd 9e 21 aa 3d 0c 6d da 3d 6a 2c 58 bc
       -0.08285105 0.08307193 0.1066533 -0.013194183
000350 4c db a0 3c 4a c9 8e 3d 48 2c fb 3b 07 78 cb 3d
       0.019635819 0.069719866 0.007665191 0.09935003
000360 e7 f0 2c b9 9f 37 be 3d 1f e7 5b bd b7 b7 0a bd
       -0.00016492941 0.09287953 -0.05368721 -0.03386661
000370 c2 fe 91 bd aa 0e 3f 3e a4 65 83 3b 00 e0 89 3d
       -0.07128669 0.18657938 0.0040099192 0.06732178
000380 14 21 9b 3d 1f bf fc bd d8 d4 4e 3c 58 66 bd bd
       0.075746685 -0.12341141 0.012623988 -0.09248036
000390 5f 0d 2f 3c e0 69 a8 3c 6e 3a 89 3d ed 3a 04 bd
       0.01068434 0.020558298 0.06700598 -0.03228276
0003a0 2b fb fa bc 7c 89 36 3c 20 a8 f0 bd ff b7 c9 bd
       -0.030637344 0.011141177 -0.11750817 -0.098495476
0003b0 d4 12 23 bd 95 a2 07 be ab 01 d6 bd 57 fc 51 3d
       -0.039812878 -0.13245614 -0.10449537 0.05126604
0003c0 7d 74 b0 bd 8c f0 e8 3d 25 55 81 bd ec 4e 48 3e
       -0.086159684 0.11374006 -0.06315068 0.19561356
0003d0 c6 f8 a3 bd ef 91 17 3d 6a 4a 8b 3d 36 1f bc 3d
       -0.08006434 0.037004407 0.06801303 0.091856405
0003e0 78 5e af 3d 14 5b 81 bd 71 07 3b 3c 99 60 68 bd
       0.0856294 -0.063162 0.011415348 -0.056732748
0003f0 f2 59 04 be a7 56 f7 3d dc 5b c3 3b 1f a3 3a 3d
       -0.12924936 0.120770745 0.005961878 0.04556572

bias f4 [128]
000000 0e 78 e1 bd f3 a0 11 be 47 fb 17 be 69 f4 09 be
       -0.11009227 -0.14221554 -0.14841948 -0.13472141
000010 c2 59 42 be 38 34 4f be 2b 3b 8e bd 6d de 97 3d
       -0.18979552 -0.20234764 -0.06944879 0.07415471
000020 51 a5 06 bd 55 ee 75 3b 23 6e 9a bb 7d 99 bc bd
       -0.0328725 0.003752609 -0.0047128364 -0.09208963
000030 c7 5a c8 bd 0d ee 9a be 0a 9c d0 bd 13 13 0e 3d
       -0.097829394 -0.30259743 -0.10186012 0.03468616
000040 7c db 86 be 2d f0 30 bd 23 bd f8 bd 65 25 a4 3a
       -0.26339328 -0.0431978 -0.1214545 0.0012523351
000050 77 08 80 bd 04 ea bc bc 51 51 3c bd c7 2b 0c be
       -0.062516145 -0.023060806 -0.045975987 -0.13688575
000060 1a 0b 44 bd 7b 58 f6 bd e5 05 39 bc 0c 1b a8 bd
       -0.04786215 -0.12028595 -0.011292909 -0.08208284
000070 35 09 cd bd 03 58 b2 3c fd 4e 66 bd 76 8c 20 be
       -0.10011522 0.021770483 -0.056227673 -0.15678582
000080 ca 6d 21 be 48 88 1d be d1 a2 ee bd 81 f8 c4 bd
       -0.15764537 -0.15384018 -0.116521485 -0.09617711
000090 46 c2 2f be 8d 9a f5 bd 16 31 89 bd ea 4b 24 be
       -0.17163953 -0.11992369 -0.066988155 -0.16044584
0000a0 75 d4 9d bd e4 ff e7 bd 3f f8 02 3d 29 a0 e7 bd
       -0.077065386 -0.11328104 0.031975027 -0.11309845
0000b0 48 14 9e bd 0e 99 0f be 66 20 14 be 18 80 dc bd
       -0.07718712 -0.1402323 -0.14465484 -0.107666194
0000c0 8a d5 46 be 65 d3 4c 3d 14 42 04 be 19 e5 a0 bd
       -0.19417396 0.05000629 -0.12915832 -0.07856197
0000d0 e9 74 e9 bc 6f 50 b1 bd 04 c8 1d be a1 99 08 be
       -0.02849813 -0.086579196 -0.15408331 -0.13339855
0000e0 2c 0d 1c bd 17 c0 da bd 9c 56 8c be 2e 85 b8 bd
       -0.0380985 -0.106811695 -0.27409828 -0.09009777
0000f0 9a e1 29 bd a7 3c 27 bd 60 18 b9 bd 3f 91 d6 bd
       -0.041474916 -0.040829327 -0.09037852 -0.10476922
000100 2a 85 34 be a5 b9 ea 3d 61 b7 f0 bd 21 70 ce bd
       -0.17628923 0.1146119 -0.11753727 -0.10079981
000110 57 8d 6f 3c 8c ab 92 bd 3e 7b e3 3c 06 0f 45 be
       0.0146211 -0.07161626 0.027768727 -0.19244012
000120 d9 38 1c be d3 87 27 bc e8 85 e4 bd 8d 8b e2 bd
       -0.1525606 -0.010225254 -0.11158353 -0.110617734
000130 02 e2 cd bd cb 61 a4 bc 50 28 1c be 4d 49 81 be
       -0.10052873 -0.020066163 -0.15249753 -0.25251237
000140 89 c2 63 be a3 bb e1 bc 86 14 47 bd 87 52 b0 bd
       -0.22242178 -0.027555292 -0.048603557 -0.08609491
000150 77 8c 2a be 2b b2 63 be df 18 66 be cc a9 e1 bd
       -0.16655146 -0.22235934 -0.22470425 -0.11018714
000160 9d 2a f5 bd 2e ed 8a bd a1 c0 21 be 15 87 8d 3d
       -0.119710185 -0.0678352 -0.15796138 0.069105305
000170 7e e4 ad bd 67 04 16 be 8d 9e 96 be 82 fa a7 3d
       -0.08490847 -0.14650117 -0.2941784 0.082020774
000180 45 6c 74 bd b7 c9 24 be 05 48 bd bb 87 14 f7 bd
       -0.059673566 -0.16092573 -0.0057764077 -0.12064462
000190 c5 ce d6 bd b5 2a 53 3d c0 4f 36 bc 96 3b 32 bd
       -0.10488657 0.0515544 -0.011127412 -0.043513857
0001a0 4d 6c 7a bd ef 83 83 bd 63 f0 12 be 5a 49 5c bd
       -0.06113844 -0.06421649 -0.14349513 -0.05378089
0001b0 a1 1d 7b bc c4 b1 7b bd 7c 85 ae bd 0a 9e 28 be
       -0.015326888 -0.061448827 -0.08521554 -0.16466537
0001c0 c7 33 ba bd 6d a4 a6 bd 30 7e d7 bd fe e2 ea bc
       -0.09091907 -0.081368305 -0.10522115 -0.028672691
0001d0 03 a8 7a be a1 3f da bd 67 76 57 bd cf e0 63 be
       -0.24478154 -0.106566675 -0.05260315 -0.22253726
0001e0 c9 31 54 bd a8 49 5a be bb e1 87 bd 62 7a 1d bc
       -0.05180529 -0.2131716 -0.066348515 -0.009611698
0001f0 db 51 e3 bd ae 2d 0c be c0 86 e4 bd e1 d9 16 be
       -0.11099597 -0.136893 -0.11158514 -0.14731552

weight f4 [12, 128]
000000 70 9a 9c 3c 36 da 2e bc f6 03 63 bc 42 b3 bf 3c
       0.01911661 -0.010672143 -0.013855925 0.023400906
000010 c8 c1 58 bc af 95 90 3d 64 5f 02 bd 02 b8 a6 bc
       -0.013229795 0.070598 -0.031829253 -0.020351414
000020 ff 00 fa bb e3 d6 27 3c 89 af 95 bd 62 6f b4 3d
       -0.0076295133 0.010244104 -0.07308871 0.08810307
000030 f6 1d 05 3d 29 7a 18 3d 90 d3 46 bc e2 32 88 3b
       0.032499276 0.037225876 -0.012135401 0.0041564563
000040 13 38 76 bc 2c c6 25 bc 51 78 7d 3c 01 86 0c bd
       -0.015028018 -0.010118049 0.01547058 -0.034307484
000050 a7 1f 45 bd 33 2c f6 3c 64 56 48 3c 2e ef 60 3d
       -0.04812589 0.030050373 0.012227628 0.0549156
000060 af 32 cc 3c 29 ab 86 bd a4 a9 a5 bc 99 fa fa 3b
       0.024926512 -0.06575615 -0.020222493 0.007659268
000070 65 68 85 3b 8e 91 0b 3d 7f 3f fe bc a0 bf f0 3c
       0.0040712827 0.03407436 -0.031036137 0.029388249
000080 84 af 7a bb ee db 24 3c 3c b8 e1 bc 6d 3a 55 3d
       -0.0038251588 0.010062201 -0.02755367 0.052057672
000090 35 a0 79 3c 9c 06 2b bc 2f 28 f6 bc 15 0b 0d 3d
       0.01523595 -0.0104385875 -0.030048458 0.034434397
0000a0 95 41 11 3b 67 89 ed bb c0 2c c3 3d a3 3f b9 3c
       0.0022164334 -0.0072490457 0.0953002 0.022613352
0000b0 5d 47 a2 39 3d 77 e4 3c 0c 99 a8 3b bb 96 2c 3c
       0.00030952218 0.027888888 0.0051451977 0.010533984
0000c0 64 d7 1e bd 1e 25 06 3c be 48 b2 3d 37 80 22 bd
       -0.03877963 0.00818756 0.08705281 -0.039673056
0000d0 58 f7 62 bc 39 e5 07 3c 57 73 ae 3d 8a 82 e2 bc
       -0.013852917 0.008294397 0.08518093 -0.027650137
0000e0 3c 98 97 bc a8 dc 99 bc 73 c7 1e 3d 32 fa 08 bd
       -0.018505208 -0.018781975 0.03876443 -0.03344173
0000f0 a3 2c 33 bc 1c 6f ed 3c c7 d6 c0 3b 96 43 ac 3d
       -0.010935935 0.028983645 0.0058849785 0.084113285
000100 e5 44 62 bc c2 6d a3 bc 7f e7 62 3d 3c 3a 31 3d
       -0.013810371 -0.019949798 0.055396553 0.043268427
000110 5a 15 b6 bc 53 ac b7 3c 7a e7 4e 3d fb be 66 3c
       -0.022226978 0.022421038 0.050513722 0.014083619
000120 72 82 f5 3c b8 65 9c bc 26 95 bf 3b 2c 00 6a bd
       0.029969428 -0.019091472 0.0058466373 -0.05712907
000130 38 16 c7 bb 40 cb bf bd e3 7a dc bc e3 5d 8b 3c
       -0.0060756467 -0.09364939 -0.026914066 0.017012542
000140 5e c8 95 bc 50 fc 66 bc f3 cc 29 3d 86 df 11 bc
       -0.01828402 -0.014098242 0.04145522 -0.00890339
000150 21 1a bc bd 98 a0 b0 bc a2 cc 4b 3c ca ae 1a bd
       -0.09184671 -0.021560952 0.012438925 -0.037764348
000160 df 8f 92 bb 9f 7b 0e 3d c1 b8 43 3d e3 e0 b6 bd
       -0.004472717 0.034785863 0.047783617 -0.089296125
000170 06 93 f6 3b 5b d3 8a 3d 71 31 43 3d 27 4b 88 ba
       0.007524851 0.06778594 0.047654573 -0.0010398374
000180 4a b9 94 3c 20 4e e6 3c 0a 08 0d 3c a6 1d 4e bc
       0.018154759 0.028113425 0.008607874 -0.012580311
000190 20 47 07 3c f5 71 00 bd 8e 68 cf 3c 0d 84 61 bb
       0.008256704 -0.031358678 0.02531841 -0.0034410984
0001a0 18 41 cf 3b e3 bc 1d bc 9c 1f e7 bc de 28 cf 3c
       0.0063248985 -0.009627554 -0.028213315 0.025288042
0001b0 2e a9 08 bd 08 a2 c3 3c 60 67 54 bc e8 1b 41 bb
       -0.033364467 0.023880973 -0.0129641 -0.0029466096
0001c0 13 3f b4 bc e3 8b c0 bc 14 c7 7e 3d 03 39 29 bc
       -0.022002732 -0.023504203 0.062201574 -0.010328534
0001d0 69 3a 7f bc e0 9e 4f 3c f4 78 1e bd 67 cf f9 3c
       -0.015577891 0.012672156 -0.03868957 0.030494405
0001e0 19 af 1d 3c 2f 64 21 bb df dd d7 3c 6f e6 80 bc
       0.009624266 -0.0024626364 0.026350914 -0.01573488
0001f0 20 a4 8b bc 4f fa 9a 3c cc c5 20 bd 9f 27 4f 3d
       -0.017046034 0.018918185 -0.039251134 0.050574895
000200 1e 0e 36 3c a0 4b 59 bd a8 97 72 ba 9e 1d 85 3d
       0.011111764 -0.053050637 -0.0009254166 0.0649979
000210 4d 33 90 3c cf fe ee 3c 8a 0a 08 bc c9 de 87 3d
       0.017602587 0.029174237 -0.008303294 0.0663429
000220 4c 67 a6 bd fb f4 6d 3c 85 3a d5 bc 0c a5 b3 3d
       -0.08125171 0.01452374 -0.02602888 0.087717146
000230 f5 9b 14 3d 6f 14 c2 3c f6 76 53 bc 85 03 b5 3c
       0.036281545 0.023691384 -0.0129067805 0.022096405
000240 2c 16 d5 3c a7 cf 38 3d ce 3f 1a bd bd 33 27 bd
       0.026011549 0.045119908 -0.037658505 -0.040820826
000250 6b 68 9f bc 67 55 3e bc ad 89 73 bc 18 37 a2 bc
       -0.01945897 -0.011617041 -0.014864367 -0.019801661
000260 5f cb bf bc 4f 0a ed bb 66 a1 02 3d 78 c0 96 3c
       -0.023412405 -0.007233895 0.031892203 0.018402323
000270 16 1a c2 bc e1 8f fd 3c 6f 88 0b bd d9 6c 5f 3d
       -0.02369408 0.030952396 -0.03406566 0.054547165
000280 64 83 97 3c 0f a8 17 3c a7 0e f5 3c 8d 6c 22 3d
       0.01849527 0.009256377 0.029914213 0.039654303
000290 81 08 a4 3c ee 8c 09 bd a8 d9 0b bd 23 cb ae bd
       0.020023586 -0.033581667 -0.03414312 -0.08534839
0002a0 5d cf a5 3d 3f 20 64 bc ce 72 28 bd 33 93 65 3d
       0.08096192 -0.013923704 -0.04112511 0.056048583
0002b0 c9 bd 95 bd 1a 16 08 3b ed c7 1d bc 92 5f ab 3b
       -0.07311589 0.0020765127 -0.009630186 0.0052298987
0002c0 9f 7f 9a bc 8b 18 d1 bc 8a 31 db bc 42 fc 19 bc
       -0.018859683 -0.025524398 -0.02675702 -0.009398522
0002d0 e1 e3 27 bd 05 a4 09 bc 39 96 1c 3d 76 00 ce 3c
       -0.040988807 -0.008400922 0.0382292 0.025146704
0002e0 04 58 7f bd 06 ec 5a bd c9 13 8a 3d 8f fe 90 bb
       -0.062339798 -0.053447746 0.06742055 -0.004424877
0002f0 c2 d8 82 3b 93 d2 06 bd 1f 0c 12 bd c1 f5 12 3d
       0.0039931247 -0.032915663 -0.03565609 0.0358789
000300 4a 16 e6 bd 32 67 97 bd e4 f6 86 3b 3c 36 7a 3d
       -0.1123472 -0.0739273 0.004118787 0.06108688
000310 6a 1b e6 3c b7 4d 98 bb b0 04 a1 3c d4 f6 7f 3d
       0.028089244 -0.004647936 0.019655555 0.062491253
000320 31 29 03 3c 58 8d 8d 3d 38 66 b2 ba 25 2f f1 bb
       0.008005426 0.06911725 -0.0013610786 -0.0073603564
000330 a4 7a a8 3b 82 ce 5a 3d 50 a0 98 bc f9 f2 83 3d
       0.005141573 0.053419597 -0.01863113 0.06442828
000340 1b 18 4e 3d bb a8 ef bc 63 0b 90 3c a5 81 db ba
       0.050315958 -0.029255262 0.017583555 -0.0016747011
000350 35 e6 2f 3d 00 70 4d 3c 48 90 24 3d 50 4d 17 3d
       0.042944152 0.01253891 0.04017666 0.036938965
000360 e8 12 1e bd f4 31 94 3d 66 94 1d bd 82 70 30 3b
       -0.03859225 0.0723609 -0.038471602 0.0026922529
000370 c5 78 d2 3c a5 e9 32 bd d9 bc 8c 3c 75 4b 54 3d
       0.025692353 -0.043679852 0.017179893 0.051829774
000380 96 c6 4a bb ef 6d 3b 3d de 80 0b be d2 3b 80 39
       -0.003094112 0.045759138 -0.13623378 0.00024458632
000390 f5 d3 8c bd e7 37 99 3c 33 18 d5 3c fb 4d 2d 3d
       -0.06876365 0.018703414 0.026012516 0.042310696
0003a0 43 5d 71 bd 64 34 c1 bc 13 18 3c bc d3 40 1c bc
       -0.058926832 -0.023584552 -0.011480349 -0.00953694
0003b0 3f 19 ab 3b 1d 10 00 bd 71 ab 29 3c 77 65 31 bc
       0.0052215154 -0.031265367 0.010355816 -0.010827414
0003c0 38 17 2b bd 80 85 89 3d 92 74 10 bc 74 d3 1f 3c
       -0.04177019 0.06714916 -0.008816855 0.009755004
0003d0 5a bd cf bd 9e 09 a8 3d 89 03 ff bc f6 ae a8 bb
       -0.10143538 0.08204959 -0.031129615 -0.00514781
0003e0 06 c8 94 3c 2f 0f b6 3c 9e 48 99 3c b2 fe 35 bd
       0.018161785 0.022224037 0.018711384 -0.04443235
0003f0 e0 03 17 bc a4 32 4b 3d bf d0 95 3d ee 8b d2 bb
       -0.0092172325 0.04960884 0.07315206 -0.0064253723

bias f4 [12]
000000 82 17 cc bd 72 a4 d8 3c 8e dd 31 3d 07 61 87 3d
       -0.09965421 0.026445601 0.04342418 0.06610303
000010 52 0f f3 bd f3 27 c6 bd 14 d0 10 be 2c 61 5d 3d
       -0.118681565 -0.096755885 -0.14141876 0.05404775
000020 c4 79 10 3e 6d da e2 3d c3 69 a1 3c bf 8f 9a 3d
       0.1410895 0.11076818 0.019703751 0.07546949
